node {
  name: "module/hub_input/images"
  op: "Placeholder"
  attr {
    key: "dtype"
    value {
      type: DT_FLOAT
    }
  }
  attr {
    key: "shape"
    value {
      shape {
        dim {
          size: -1
        }
        dim {
          size: 128
        }
        dim {
          size: 128
        }
        dim {
          size: 3
        }
      }
    }
  }
}
node {
  name: "module/hub_input/Mul/y"
  op: "Const"
  attr {
    key: "dtype"
    value {
      type: DT_FLOAT
    }
  }
  attr {
    key: "value"
    value {
      tensor {
        dtype: DT_FLOAT
        tensor_shape {
        }
        float_val: 2.0
      }
    }
  }
}
node {
  name: "module/hub_input/Mul"
  op: "Mul"
  input: "module/hub_input/images"
  input: "module/hub_input/Mul/y"
  attr {
    key: "T"
    value {
      type: DT_FLOAT
    }
  }
}
node {
  name: "module/hub_input/Sub/y"
  op: "Const"
  attr {
    key: "dtype"
    value {
      type: DT_FLOAT
    }
  }
  attr {
    key: "value"
    value {
      tensor {
        dtype: DT_FLOAT
        tensor_shape {
        }
        float_val: 1.0
      }
    }
  }
}
node {
  name: "module/hub_input/Sub"
  op: "Sub"
  input: "module/hub_input/Mul"
  input: "module/hub_input/Sub/y"
  attr {
    key: "T"
    value {
      type: DT_FLOAT
    }
  }
}
node {
  name: "module/MobilenetV2/input"
  op: "Identity"
  input: "module/hub_input/Sub"
  attr {
    key: "T"
    value {
      type: DT_FLOAT
    }
  }
}
node {
  name: "module/MobilenetV2/Conv/weights/Initializer/truncated_normal/shape"
  op: "Const"
  attr {
    key: "_class"
    value {
      list {
        s: "loc:@module/MobilenetV2/Conv/weights"
      }
    }
  }
  attr {
    key: "dtype"
    value {
      type: DT_INT32
    }
  }
  attr {
    key: "value"
    value {
      tensor {
        dtype: DT_INT32
        tensor_shape {
          dim {
            size: 4
          }
        }
        tensor_content: "\003\000\000\000\003\000\000\000\003\000\000\000\020\000\000\000"
      }
    }
  }
}
node {
  name: "module/MobilenetV2/Conv/weights/Initializer/truncated_normal/mean"
  op: "Const"
  attr {
    key: "_class"
    value {
      list {
        s: "loc:@module/MobilenetV2/Conv/weights"
      }
    }
  }
  attr {
    key: "dtype"
    value {
      type: DT_FLOAT
    }
  }
  attr {
    key: "value"
    value {
      tensor {
        dtype: DT_FLOAT
        tensor_shape {
        }
        float_val: 0.0
      }
    }
  }
}
node {
  name: "module/MobilenetV2/Conv/weights/Initializer/truncated_normal/stddev"
  op: "Const"
  attr {
    key: "_class"
    value {
      list {
        s: "loc:@module/MobilenetV2/Conv/weights"
      }
    }
  }
  attr {
    key: "dtype"
    value {
      type: DT_FLOAT
    }
  }
  attr {
    key: "value"
    value {
      tensor {
        dtype: DT_FLOAT
        tensor_shape {
        }
        float_val: 0.09000000357627869
      }
    }
  }
}
node {
  name: "module/MobilenetV2/Conv/weights/Initializer/truncated_normal/TruncatedNormal"
  op: "TruncatedNormal"
  input: "module/MobilenetV2/Conv/weights/Initializer/truncated_normal/shape"
  attr {
    key: "T"
    value {
      type: DT_INT32
    }
  }
  attr {
    key: "_class"
    value {
      list {
        s: "loc:@module/MobilenetV2/Conv/weights"
      }
    }
  }
  attr {
    key: "dtype"
    value {
      type: DT_FLOAT
    }
  }
  attr {
    key: "seed"
    value {
      i: 0
    }
  }
  attr {
    key: "seed2"
    value {
      i: 0
    }
  }
}
node {
  name: "module/MobilenetV2/Conv/weights/Initializer/truncated_normal/mul"
  op: "Mul"
  input: "module/MobilenetV2/Conv/weights/Initializer/truncated_normal/TruncatedNormal"
  input: "module/MobilenetV2/Conv/weights/Initializer/truncated_normal/stddev"
  attr {
    key: "T"
    value {
      type: DT_FLOAT
    }
  }
  attr {
    key: "_class"
    value {
      list {
        s: "loc:@module/MobilenetV2/Conv/weights"
      }
    }
  }
}
node {
  name: "module/MobilenetV2/Conv/weights/Initializer/truncated_normal"
  op: "Add"
  input: "module/MobilenetV2/Conv/weights/Initializer/truncated_normal/mul"
  input: "module/MobilenetV2/Conv/weights/Initializer/truncated_normal/mean"
  attr {
    key: "T"
    value {
      type: DT_FLOAT
    }
  }
  attr {
    key: "_class"
    value {
      list {
        s: "loc:@module/MobilenetV2/Conv/weights"
      }
    }
  }
}
node {
  name: "module/MobilenetV2/Conv/weights"
  op: "VarHandleOp"
  attr {
    key: "_class"
    value {
      list {
        s: "loc:@module/MobilenetV2/Conv/weights"
      }
    }
  }
  attr {
    key: "container"
    value {
      s: ""
    }
  }
  attr {
    key: "dtype"
    value {
      type: DT_FLOAT
    }
  }
  attr {
    key: "shape"
    value {
      shape {
        dim {
          size: 3
        }
        dim {
          size: 3
        }
        dim {
          size: 3
        }
        dim {
          size: 16
        }
      }
    }
  }
  attr {
    key: "shared_name"
    value {
      s: "module/MobilenetV2/Conv/weights"
    }
  }
}
node {
  name: "module/MobilenetV2/Conv/weights/IsInitialized/VarIsInitializedOp"
  op: "VarIsInitializedOp"
  input: "module/MobilenetV2/Conv/weights"
}
node {
  name: "module/MobilenetV2/Conv/weights/Assign"
  op: "AssignVariableOp"
  input: "module/MobilenetV2/Conv/weights"
  input: "module/MobilenetV2/Conv/weights/Initializer/truncated_normal"
  attr {
    key: "_class"
    value {
      list {
        s: "loc:@module/MobilenetV2/Conv/weights"
      }
    }
  }
  attr {
    key: "dtype"
    value {
      type: DT_FLOAT
    }
  }
}
node {
  name: "module/MobilenetV2/Conv/weights/Read/ReadVariableOp"
  op: "ReadVariableOp"
  input: "module/MobilenetV2/Conv/weights"
  attr {
    key: "_class"
    value {
      list {
        s: "loc:@module/MobilenetV2/Conv/weights"
      }
    }
  }
  attr {
    key: "dtype"
    value {
      type: DT_FLOAT
    }
  }
}
node {
  name: "module/MobilenetV2/Conv/kernel/Regularizer/l2_regularizer/scale"
  op: "Const"
  attr {
    key: "_class"
    value {
      list {
        s: "loc:@module/MobilenetV2/Conv/weights"
      }
    }
  }
  attr {
    key: "dtype"
    value {
      type: DT_FLOAT
    }
  }
  attr {
    key: "value"
    value {
      tensor {
        dtype: DT_FLOAT
        tensor_shape {
        }
        float_val: 3.9999998989515007e-05
      }
    }
  }
}
node {
  name: "module/MobilenetV2/Conv/kernel/Regularizer/l2_regularizer/L2Loss/ReadVariableOp"
  op: "ReadVariableOp"
  input: "module/MobilenetV2/Conv/weights"
  attr {
    key: "dtype"
    value {
      type: DT_FLOAT
    }
  }
}
node {
  name: "module/MobilenetV2/Conv/kernel/Regularizer/l2_regularizer/L2Loss"
  op: "L2Loss"
  input: "module/MobilenetV2/Conv/kernel/Regularizer/l2_regularizer/L2Loss/ReadVariableOp"
  attr {
    key: "T"
    value {
      type: DT_FLOAT
    }
  }
  attr {
    key: "_class"
    value {
      list {
        s: "loc:@module/MobilenetV2/Conv/weights"
      }
    }
  }
}
node {
  name: "module/MobilenetV2/Conv/kernel/Regularizer/l2_regularizer"
  op: "Mul"
  input: "module/MobilenetV2/Conv/kernel/Regularizer/l2_regularizer/scale"
  input: "module/MobilenetV2/Conv/kernel/Regularizer/l2_regularizer/L2Loss"
  attr {
    key: "T"
    value {
      type: DT_FLOAT
    }
  }
  attr {
    key: "_class"
    value {
      list {
        s: "loc:@module/MobilenetV2/Conv/weights"
      }
    }
  }
}
node {
  name: "module/MobilenetV2/Conv/dilation_rate"
  op: "Const"
  attr {
    key: "dtype"
    value {
      type: DT_INT32
    }
  }
  attr {
    key: "value"
    value {
      tensor {
        dtype: DT_INT32
        tensor_shape {
          dim {
            size: 2
          }
        }
        tensor_content: "\001\000\000\000\001\000\000\000"
      }
    }
  }
}
node {
  name: "module/MobilenetV2/Conv/Conv2D/ReadVariableOp"
  op: "ReadVariableOp"
  input: "module/MobilenetV2/Conv/weights"
  attr {
    key: "dtype"
    value {
      type: DT_FLOAT
    }
  }
}
node {
  name: "module/MobilenetV2/Conv/Conv2D"
  op: "Conv2D"
  input: "module/MobilenetV2/input"
  input: "module/MobilenetV2/Conv/Conv2D/ReadVariableOp"
  attr {
    key: "T"
    value {
      type: DT_FLOAT
    }
  }
  attr {
    key: "data_format"
    value {
      s: "NHWC"
    }
  }
  attr {
    key: "dilations"
    value {
      list {
        i: 1
        i: 1
        i: 1
        i: 1
      }
    }
  }
  attr {
    key: "explicit_paddings"
    value {
      list {
      }
    }
  }
  attr {
    key: "padding"
    value {
      s: "SAME"
    }
  }
  attr {
    key: "strides"
    value {
      list {
        i: 1
        i: 2
        i: 2
        i: 1
      }
    }
  }
  attr {
    key: "use_cudnn_on_gpu"
    value {
      b: true
    }
  }
}
node {
  name: "module/MobilenetV2/Conv/BatchNorm/gamma/Initializer/ones"
  op: "Const"
  attr {
    key: "_class"
    value {
      list {
        s: "loc:@module/MobilenetV2/Conv/BatchNorm/gamma"
      }
    }
  }
  attr {
    key: "dtype"
    value {
      type: DT_FLOAT
    }
  }
  attr {
    key: "value"
    value {
      tensor {
        dtype: DT_FLOAT
        tensor_shape {
          dim {
            size: 16
          }
        }
        float_val: 1.0
      }
    }
  }
}
node {
  name: "module/MobilenetV2/Conv/BatchNorm/gamma"
  op: "VarHandleOp"
  attr {
    key: "_class"
    value {
      list {
        s: "loc:@module/MobilenetV2/Conv/BatchNorm/gamma"
      }
    }
  }
  attr {
    key: "container"
    value {
      s: ""
    }
  }
  attr {
    key: "dtype"
    value {
      type: DT_FLOAT
    }
  }
  attr {
    key: "shape"
    value {
      shape {
        dim {
          size: 16
        }
      }
    }
  }
  attr {
    key: "shared_name"
    value {
      s: "module/MobilenetV2/Conv/BatchNorm/gamma"
    }
  }
}
node {
  name: "module/MobilenetV2/Conv/BatchNorm/gamma/IsInitialized/VarIsInitializedOp"
  op: "VarIsInitializedOp"
  input: "module/MobilenetV2/Conv/BatchNorm/gamma"
}
node {
  name: "module/MobilenetV2/Conv/BatchNorm/gamma/Assign"
  op: "AssignVariableOp"
  input: "module/MobilenetV2/Conv/BatchNorm/gamma"
  input: "module/MobilenetV2/Conv/BatchNorm/gamma/Initializer/ones"
  attr {
    key: "_class"
    value {
      list {
        s: "loc:@module/MobilenetV2/Conv/BatchNorm/gamma"
      }
    }
  }
  attr {
    key: "dtype"
    value {
      type: DT_FLOAT
    }
  }
}
node {
  name: "module/MobilenetV2/Conv/BatchNorm/gamma/Read/ReadVariableOp"
  op: "ReadVariableOp"
  input: "module/MobilenetV2/Conv/BatchNorm/gamma"
  attr {
    key: "_class"
    value {
      list {
        s: "loc:@module/MobilenetV2/Conv/BatchNorm/gamma"
      }
    }
  }
  attr {
    key: "dtype"
    value {
      type: DT_FLOAT
    }
  }
}
node {
  name: "module/MobilenetV2/Conv/BatchNorm/beta/Initializer/zeros"
  op: "Const"
  attr {
    key: "_class"
    value {
      list {
        s: "loc:@module/MobilenetV2/Conv/BatchNorm/beta"
      }
    }
  }
  attr {
    key: "dtype"
    value {
      type: DT_FLOAT
    }
  }
  attr {
    key: "value"
    value {
      tensor {
        dtype: DT_FLOAT
        tensor_shape {
          dim {
            size: 16
          }
        }
        float_val: 0.0
      }
    }
  }
}
node {
  name: "module/MobilenetV2/Conv/BatchNorm/beta"
  op: "VarHandleOp"
  attr {
    key: "_class"
    value {
      list {
        s: "loc:@module/MobilenetV2/Conv/BatchNorm/beta"
      }
    }
  }
  attr {
    key: "container"
    value {
      s: ""
    }
  }
  attr {
    key: "dtype"
    value {
      type: DT_FLOAT
    }
  }
  attr {
    key: "shape"
    value {
      shape {
        dim {
          size: 16
        }
      }
    }
  }
  attr {
    key: "shared_name"
    value {
      s: "module/MobilenetV2/Conv/BatchNorm/beta"
    }
  }
}
node {
  name: "module/MobilenetV2/Conv/BatchNorm/beta/IsInitialized/VarIsInitializedOp"
  op: "VarIsInitializedOp"
  input: "module/MobilenetV2/Conv/BatchNorm/beta"
}
node {
  name: "module/MobilenetV2/Conv/BatchNorm/beta/Assign"
  op: "AssignVariableOp"
  input: "module/MobilenetV2/Conv/BatchNorm/beta"
  input: "module/MobilenetV2/Conv/BatchNorm/beta/Initializer/zeros"
  attr {
    key: "_class"
    value {
      list {
        s: "loc:@module/MobilenetV2/Conv/BatchNorm/beta"
      }
    }
  }
  attr {
    key: "dtype"
    value {
      type: DT_FLOAT
    }
  }
}
node {
  name: "module/MobilenetV2/Conv/BatchNorm/beta/Read/ReadVariableOp"
  op: "ReadVariableOp"
  input: "module/MobilenetV2/Conv/BatchNorm/beta"
  attr {
    key: "_class"
    value {
      list {
        s: "loc:@module/MobilenetV2/Conv/BatchNorm/beta"
      }
    }
  }
  attr {
    key: "dtype"
    value {
      type: DT_FLOAT
    }
  }
}
node {
  name: "module/MobilenetV2/Conv/BatchNorm/moving_mean/Initializer/zeros"
  op: "Const"
  attr {
    key: "_class"
    value {
      list {
        s: "loc:@module/MobilenetV2/Conv/BatchNorm/moving_mean"
      }
    }
  }
  attr {
    key: "dtype"
    value {
      type: DT_FLOAT
    }
  }
  attr {
    key: "value"
    value {
      tensor {
        dtype: DT_FLOAT
        tensor_shape {
          dim {
            size: 16
          }
        }
        float_val: 0.0
      }
    }
  }
}
node {
  name: "module/MobilenetV2/Conv/BatchNorm/moving_mean"
  op: "VarHandleOp"
  attr {
    key: "_class"
    value {
      list {
        s: "loc:@module/MobilenetV2/Conv/BatchNorm/moving_mean"
      }
    }
  }
  attr {
    key: "container"
    value {
      s: ""
    }
  }
  attr {
    key: "dtype"
    value {
      type: DT_FLOAT
    }
  }
  attr {
    key: "shape"
    value {
      shape {
        dim {
          size: 16
        }
      }
    }
  }
  attr {
    key: "shared_name"
    value {
      s: "module/MobilenetV2/Conv/BatchNorm/moving_mean"
    }
  }
}
node {
  name: "module/MobilenetV2/Conv/BatchNorm/moving_mean/IsInitialized/VarIsInitializedOp"
  op: "VarIsInitializedOp"
  input: "module/MobilenetV2/Conv/BatchNorm/moving_mean"
}
node {
  name: "module/MobilenetV2/Conv/BatchNorm/moving_mean/Assign"
  op: "AssignVariableOp"
  input: "module/MobilenetV2/Conv/BatchNorm/moving_mean"
  input: "module/MobilenetV2/Conv/BatchNorm/moving_mean/Initializer/zeros"
  attr {
    key: "_class"
    value {
      list {
        s: "loc:@module/MobilenetV2/Conv/BatchNorm/moving_mean"
      }
    }
  }
  attr {
    key: "dtype"
    value {
      type: DT_FLOAT
    }
  }
}
node {
  name: "module/MobilenetV2/Conv/BatchNorm/moving_mean/Read/ReadVariableOp"
  op: "ReadVariableOp"
  input: "module/MobilenetV2/Conv/BatchNorm/moving_mean"
  attr {
    key: "_class"
    value {
      list {
        s: "loc:@module/MobilenetV2/Conv/BatchNorm/moving_mean"
      }
    }
  }
  attr {
    key: "dtype"
    value {
      type: DT_FLOAT
    }
  }
}
node {
  name: "module/MobilenetV2/Conv/BatchNorm/moving_variance/Initializer/ones"
  op: "Const"
  attr {
    key: "_class"
    value {
      list {
        s: "loc:@module/MobilenetV2/Conv/BatchNorm/moving_variance"
      }
    }
  }
  attr {
    key: "dtype"
    value {
      type: DT_FLOAT
    }
  }
  attr {
    key: "value"
    value {
      tensor {
        dtype: DT_FLOAT
        tensor_shape {
          dim {
            size: 16
          }
        }
        float_val: 1.0
      }
    }
  }
}
node {
  name: "module/MobilenetV2/Conv/BatchNorm/moving_variance"
  op: "VarHandleOp"
  attr {
    key: "_class"
    value {
      list {
        s: "loc:@module/MobilenetV2/Conv/BatchNorm/moving_variance"
      }
    }
  }
  attr {
    key: "container"
    value {
      s: ""
    }
  }
  attr {
    key: "dtype"
    value {
      type: DT_FLOAT
    }
  }
  attr {
    key: "shape"
    value {
      shape {
        dim {
          size: 16
        }
      }
    }
  }
  attr {
    key: "shared_name"
    value {
      s: "module/MobilenetV2/Conv/BatchNorm/moving_variance"
    }
  }
}
node {
  name: "module/MobilenetV2/Conv/BatchNorm/moving_variance/IsInitialized/VarIsInitializedOp"
  op: "VarIsInitializedOp"
  input: "module/MobilenetV2/Conv/BatchNorm/moving_variance"
}
node {
  name: "module/MobilenetV2/Conv/BatchNorm/moving_variance/Assign"
  op: "AssignVariableOp"
  input: "module/MobilenetV2/Conv/BatchNorm/moving_variance"
  input: "module/MobilenetV2/Conv/BatchNorm/moving_variance/Initializer/ones"
  attr {
    key: "_class"
    value {
      list {
        s: "loc:@module/MobilenetV2/Conv/BatchNorm/moving_variance"
      }
    }
  }
  attr {
    key: "dtype"
    value {
      type: DT_FLOAT
    }
  }
}
node {
  name: "module/MobilenetV2/Conv/BatchNorm/moving_variance/Read/ReadVariableOp"
  op: "ReadVariableOp"
  input: "module/MobilenetV2/Conv/BatchNorm/moving_variance"
  attr {
    key: "_class"
    value {
      list {
        s: "loc:@module/MobilenetV2/Conv/BatchNorm/moving_variance"
      }
    }
  }
  attr {
    key: "dtype"
    value {
      type: DT_FLOAT
    }
  }
}
node {
  name: "module/MobilenetV2/Conv/BatchNorm/ReadVariableOp"
  op: "ReadVariableOp"
  input: "module/MobilenetV2/Conv/BatchNorm/gamma"
  attr {
    key: "dtype"
    value {
      type: DT_FLOAT
    }
  }
}
node {
  name: "module/MobilenetV2/Conv/BatchNorm/ReadVariableOp_1"
  op: "ReadVariableOp"
  input: "module/MobilenetV2/Conv/BatchNorm/beta"
  attr {
    key: "dtype"
    value {
      type: DT_FLOAT
    }
  }
}
node {
  name: "module/MobilenetV2/Conv/BatchNorm/FusedBatchNorm/ReadVariableOp"
  op: "ReadVariableOp"
  input: "module/MobilenetV2/Conv/BatchNorm/moving_mean"
  attr {
    key: "dtype"
    value {
      type: DT_FLOAT
    }
  }
}
node {
  name: "module/MobilenetV2/Conv/BatchNorm/FusedBatchNorm/ReadVariableOp_1"
  op: "ReadVariableOp"
  input: "module/MobilenetV2/Conv/BatchNorm/moving_variance"
  attr {
    key: "dtype"
    value {
      type: DT_FLOAT
    }
  }
}
node {
  name: "module/MobilenetV2/Conv/BatchNorm/FusedBatchNorm"
  op: "FusedBatchNorm"
  input: "module/MobilenetV2/Conv/Conv2D"
  input: "module/MobilenetV2/Conv/BatchNorm/ReadVariableOp"
  input: "module/MobilenetV2/Conv/BatchNorm/ReadVariableOp_1"
  input: "module/MobilenetV2/Conv/BatchNorm/FusedBatchNorm/ReadVariableOp"
  input: "module/MobilenetV2/Conv/BatchNorm/FusedBatchNorm/ReadVariableOp_1"
  attr {
    key: "T"
    value {
      type: DT_FLOAT
    }
  }
  attr {
    key: "data_format"
    value {
      s: "NHWC"
    }
  }
  attr {
    key: "epsilon"
    value {
      f: 0.0010000000474974513
    }
  }
  attr {
    key: "is_training"
    value {
      b: false
    }
  }
}
node {
  name: "module/MobilenetV2/Conv/BatchNorm/Const"
  op: "Const"
  attr {
    key: "dtype"
    value {
      type: DT_FLOAT
    }
  }
  attr {
    key: "value"
    value {
      tensor {
        dtype: DT_FLOAT
        tensor_shape {
        }
        float_val: 0.996999979019165
      }
    }
  }
}
node {
  name: "module/MobilenetV2/Conv/Relu6"
  op: "Relu6"
  input: "module/MobilenetV2/Conv/BatchNorm/FusedBatchNorm"
  attr {
    key: "T"
    value {
      type: DT_FLOAT
    }
  }
}
node {
  name: "module/MobilenetV2/expanded_conv/input"
  op: "Identity"
  input: "module/MobilenetV2/Conv/Relu6"
  attr {
    key: "T"
    value {
      type: DT_FLOAT
    }
  }
}
node {
  name: "module/MobilenetV2/expanded_conv/depthwise/depthwise_weights/Initializer/truncated_normal/shape"
  op: "Const"
  attr {
    key: "_class"
    value {
      list {
        s: "loc:@module/MobilenetV2/expanded_conv/depthwise/depthwise_weights"
      }
    }
  }
  attr {
    key: "dtype"
    value {
      type: DT_INT32
    }
  }
  attr {
    key: "value"
    value {
      tensor {
        dtype: DT_INT32
        tensor_shape {
          dim {
            size: 4
          }
        }
        tensor_content: "\003\000\000\000\003\000\000\000\020\000\000\000\001\000\000\000"
      }
    }
  }
}
node {
  name: "module/MobilenetV2/expanded_conv/depthwise/depthwise_weights/Initializer/truncated_normal/mean"
  op: "Const"
  attr {
    key: "_class"
    value {
      list {
        s: "loc:@module/MobilenetV2/expanded_conv/depthwise/depthwise_weights"
      }
    }
  }
  attr {
    key: "dtype"
    value {
      type: DT_FLOAT
    }
  }
  attr {
    key: "value"
    value {
      tensor {
        dtype: DT_FLOAT
        tensor_shape {
        }
        float_val: 0.0
      }
    }
  }
}
node {
  name: "module/MobilenetV2/expanded_conv/depthwise/depthwise_weights/Initializer/truncated_normal/stddev"
  op: "Const"
  attr {
    key: "_class"
    value {
      list {
        s: "loc:@module/MobilenetV2/expanded_conv/depthwise/depthwise_weights"
      }
    }
  }
  attr {
    key: "dtype"
    value {
      type: DT_FLOAT
    }
  }
  attr {
    key: "value"
    value {
      tensor {
        dtype: DT_FLOAT
        tensor_shape {
        }
        float_val: 0.09000000357627869
      }
    }
  }
}
node {
  name: "module/MobilenetV2/expanded_conv/depthwise/depthwise_weights/Initializer/truncated_normal/TruncatedNormal"
  op: "TruncatedNormal"
  input: "module/MobilenetV2/expanded_conv/depthwise/depthwise_weights/Initializer/truncated_normal/shape"
  attr {
    key: "T"
    value {
      type: DT_INT32
    }
  }
  attr {
    key: "_class"
    value {
      list {
        s: "loc:@module/MobilenetV2/expanded_conv/depthwise/depthwise_weights"
      }
    }
  }
  attr {
    key: "dtype"
    value {
      type: DT_FLOAT
    }
  }
  attr {
    key: "seed"
    value {
      i: 0
    }
  }
  attr {
    key: "seed2"
    value {
      i: 0
    }
  }
}
node {
  name: "module/MobilenetV2/expanded_conv/depthwise/depthwise_weights/Initializer/truncated_normal/mul"
  op: "Mul"
  input: "module/MobilenetV2/expanded_conv/depthwise/depthwise_weights/Initializer/truncated_normal/TruncatedNormal"
  input: "module/MobilenetV2/expanded_conv/depthwise/depthwise_weights/Initializer/truncated_normal/stddev"
  attr {
    key: "T"
    value {
      type: DT_FLOAT
    }
  }
  attr {
    key: "_class"
    value {
      list {
        s: "loc:@module/MobilenetV2/expanded_conv/depthwise/depthwise_weights"
      }
    }
  }
}
node {
  name: "module/MobilenetV2/expanded_conv/depthwise/depthwise_weights/Initializer/truncated_normal"
  op: "Add"
  input: "module/MobilenetV2/expanded_conv/depthwise/depthwise_weights/Initializer/truncated_normal/mul"
  input: "module/MobilenetV2/expanded_conv/depthwise/depthwise_weights/Initializer/truncated_normal/mean"
  attr {
    key: "T"
    value {
      type: DT_FLOAT
    }
  }
  attr {
    key: "_class"
    value {
      list {
        s: "loc:@module/MobilenetV2/expanded_conv/depthwise/depthwise_weights"
      }
    }
  }
}
node {
  name: "module/MobilenetV2/expanded_conv/depthwise/depthwise_weights"
  op: "VarHandleOp"
  attr {
    key: "_class"
    value {
      list {
        s: "loc:@module/MobilenetV2/expanded_conv/depthwise/depthwise_weights"
      }
    }
  }
  attr {
    key: "container"
    value {
      s: ""
    }
  }
  attr {
    key: "dtype"
    value {
      type: DT_FLOAT
    }
  }
  attr {
    key: "shape"
    value {
      shape {
        dim {
          size: 3
        }
        dim {
          size: 3
        }
        dim {
          size: 16
        }
        dim {
          size: 1
        }
      }
    }
  }
  attr {
    key: "shared_name"
    value {
      s: "module/MobilenetV2/expanded_conv/depthwise/depthwise_weights"
    }
  }
}
node {
  name: "module/MobilenetV2/expanded_conv/depthwise/depthwise_weights/IsInitialized/VarIsInitializedOp"
  op: "VarIsInitializedOp"
  input: "module/MobilenetV2/expanded_conv/depthwise/depthwise_weights"
}
node {
  name: "module/MobilenetV2/expanded_conv/depthwise/depthwise_weights/Assign"
  op: "AssignVariableOp"
  input: "module/MobilenetV2/expanded_conv/depthwise/depthwise_weights"
  input: "module/MobilenetV2/expanded_conv/depthwise/depthwise_weights/Initializer/truncated_normal"
  attr {
    key: "_class"
    value {
      list {
        s: "loc:@module/MobilenetV2/expanded_conv/depthwise/depthwise_weights"
      }
    }
  }
  attr {
    key: "dtype"
    value {
      type: DT_FLOAT
    }
  }
}
node {
  name: "module/MobilenetV2/expanded_conv/depthwise/depthwise_weights/Read/ReadVariableOp"
  op: "ReadVariableOp"
  input: "module/MobilenetV2/expanded_conv/depthwise/depthwise_weights"
  attr {
    key: "_class"
    value {
      list {
        s: "loc:@module/MobilenetV2/expanded_conv/depthwise/depthwise_weights"
      }
    }
  }
  attr {
    key: "dtype"
    value {
      type: DT_FLOAT
    }
  }
}
node {
  name: "module/MobilenetV2/expanded_conv/depthwise/depthwise/ReadVariableOp"
  op: "ReadVariableOp"
  input: "module/MobilenetV2/expanded_conv/depthwise/depthwise_weights"
  attr {
    key: "dtype"
    value {
      type: DT_FLOAT
    }
  }
}
node {
  name: "module/MobilenetV2/expanded_conv/depthwise/depthwise/Shape"
  op: "Const"
  attr {
    key: "dtype"
    value {
      type: DT_INT32
    }
  }
  attr {
    key: "value"
    value {
      tensor {
        dtype: DT_INT32
        tensor_shape {
          dim {
            size: 4
          }
        }
        tensor_content: "\003\000\000\000\003\000\000\000\020\000\000\000\001\000\000\000"
      }
    }
  }
}
node {
  name: "module/MobilenetV2/expanded_conv/depthwise/depthwise/dilation_rate"
  op: "Const"
  attr {
    key: "dtype"
    value {
      type: DT_INT32
    }
  }
  attr {
    key: "value"
    value {
      tensor {
        dtype: DT_INT32
        tensor_shape {
          dim {
            size: 2
          }
        }
        tensor_content: "\001\000\000\000\001\000\000\000"
      }
    }
  }
}
node {
  name: "module/MobilenetV2/expanded_conv/depthwise/depthwise"
  op: "DepthwiseConv2dNative"
  input: "module/MobilenetV2/expanded_conv/input"
  input: "module/MobilenetV2/expanded_conv/depthwise/depthwise/ReadVariableOp"
  attr {
    key: "T"
    value {
      type: DT_FLOAT
    }
  }
  attr {
    key: "data_format"
    value {
      s: "NHWC"
    }
  }
  attr {
    key: "dilations"
    value {
      list {
        i: 1
        i: 1
        i: 1
        i: 1
      }
    }
  }
  attr {
    key: "padding"
    value {
      s: "SAME"
    }
  }
  attr {
    key: "strides"
    value {
      list {
        i: 1
        i: 1
        i: 1
        i: 1
      }
    }
  }
}
node {
  name: "module/MobilenetV2/expanded_conv/depthwise/BatchNorm/gamma/Initializer/ones"
  op: "Const"
  attr {
    key: "_class"
    value {
      list {
        s: "loc:@module/MobilenetV2/expanded_conv/depthwise/BatchNorm/gamma"
      }
    }
  }
  attr {
    key: "dtype"
    value {
      type: DT_FLOAT
    }
  }
  attr {
    key: "value"
    value {
      tensor {
        dtype: DT_FLOAT
        tensor_shape {
          dim {
            size: 16
          }
        }
        float_val: 1.0
      }
    }
  }
}
node {
  name: "module/MobilenetV2/expanded_conv/depthwise/BatchNorm/gamma"
  op: "VarHandleOp"
  attr {
    key: "_class"
    value {
      list {
        s: "loc:@module/MobilenetV2/expanded_conv/depthwise/BatchNorm/gamma"
      }
    }
  }
  attr {
    key: "container"
    value {
      s: ""
    }
  }
  attr {
    key: "dtype"
    value {
      type: DT_FLOAT
    }
  }
  attr {
    key: "shape"
    value {
      shape {
        dim {
          size: 16
        }
      }
    }
  }
  attr {
    key: "shared_name"
    value {
      s: "module/MobilenetV2/expanded_conv/depthwise/BatchNorm/gamma"
    }
  }
}
node {
  name: "module/MobilenetV2/expanded_conv/depthwise/BatchNorm/gamma/IsInitialized/VarIsInitializedOp"
  op: "VarIsInitializedOp"
  input: "module/MobilenetV2/expanded_conv/depthwise/BatchNorm/gamma"
}
node {
  name: "module/MobilenetV2/expanded_conv/depthwise/BatchNorm/gamma/Assign"
  op: "AssignVariableOp"
  input: "module/MobilenetV2/expanded_conv/depthwise/BatchNorm/gamma"
  input: "module/MobilenetV2/expanded_conv/depthwise/BatchNorm/gamma/Initializer/ones"
  attr {
    key: "_class"
    value {
      list {
        s: "loc:@module/MobilenetV2/expanded_conv/depthwise/BatchNorm/gamma"
      }
    }
  }
  attr {
    key: "dtype"
    value {
      type: DT_FLOAT
    }
  }
}
node {
  name: "module/MobilenetV2/expanded_conv/depthwise/BatchNorm/gamma/Read/ReadVariableOp"
  op: "ReadVariableOp"
  input: "module/MobilenetV2/expanded_conv/depthwise/BatchNorm/gamma"
  attr {
    key: "_class"
    value {
      list {
        s: "loc:@module/MobilenetV2/expanded_conv/depthwise/BatchNorm/gamma"
      }
    }
  }
  attr {
    key: "dtype"
    value {
      type: DT_FLOAT
    }
  }
}
node {
  name: "module/MobilenetV2/expanded_conv/depthwise/BatchNorm/beta/Initializer/zeros"
  op: "Const"
  attr {
    key: "_class"
    value {
      list {
        s: "loc:@module/MobilenetV2/expanded_conv/depthwise/BatchNorm/beta"
      }
    }
  }
  attr {
    key: "dtype"
    value {
      type: DT_FLOAT
    }
  }
  attr {
    key: "value"
    value {
      tensor {
        dtype: DT_FLOAT
        tensor_shape {
          dim {
            size: 16
          }
        }
        float_val: 0.0
      }
    }
  }
}
node {
  name: "module/MobilenetV2/expanded_conv/depthwise/BatchNorm/beta"
  op: "VarHandleOp"
  attr {
    key: "_class"
    value {
      list {
        s: "loc:@module/MobilenetV2/expanded_conv/depthwise/BatchNorm/beta"
      }
    }
  }
  attr {
    key: "container"
    value {
      s: ""
    }
  }
  attr {
    key: "dtype"
    value {
      type: DT_FLOAT
    }
  }
  attr {
    key: "shape"
    value {
      shape {
        dim {
          size: 16
        }
      }
    }
  }
  attr {
    key: "shared_name"
    value {
      s: "module/MobilenetV2/expanded_conv/depthwise/BatchNorm/beta"
    }
  }
}
node {
  name: "module/MobilenetV2/expanded_conv/depthwise/BatchNorm/beta/IsInitialized/VarIsInitializedOp"
  op: "VarIsInitializedOp"
  input: "module/MobilenetV2/expanded_conv/depthwise/BatchNorm/beta"
}
node {
  name: "module/MobilenetV2/expanded_conv/depthwise/BatchNorm/beta/Assign"
  op: "AssignVariableOp"
  input: "module/MobilenetV2/expanded_conv/depthwise/BatchNorm/beta"
  input: "module/MobilenetV2/expanded_conv/depthwise/BatchNorm/beta/Initializer/zeros"
  attr {
    key: "_class"
    value {
      list {
        s: "loc:@module/MobilenetV2/expanded_conv/depthwise/BatchNorm/beta"
      }
    }
  }
  attr {
    key: "dtype"
    value {
      type: DT_FLOAT
    }
  }
}
node {
  name: "module/MobilenetV2/expanded_conv/depthwise/BatchNorm/beta/Read/ReadVariableOp"
  op: "ReadVariableOp"
  input: "module/MobilenetV2/expanded_conv/depthwise/BatchNorm/beta"
  attr {
    key: "_class"
    value {
      list {
        s: "loc:@module/MobilenetV2/expanded_conv/depthwise/BatchNorm/beta"
      }
    }
  }
  attr {
    key: "dtype"
    value {
      type: DT_FLOAT
    }
  }
}
node {
  name: "module/MobilenetV2/expanded_conv/depthwise/BatchNorm/moving_mean/Initializer/zeros"
  op: "Const"
  attr {
    key: "_class"
    value {
      list {
        s: "loc:@module/MobilenetV2/expanded_conv/depthwise/BatchNorm/moving_mean"
      }
    }
  }
  attr {
    key: "dtype"
    value {
      type: DT_FLOAT
    }
  }
  attr {
    key: "value"
    value {
      tensor {
        dtype: DT_FLOAT
        tensor_shape {
          dim {
            size: 16
          }
        }
        float_val: 0.0
      }
    }
  }
}
node {
  name: "module/MobilenetV2/expanded_conv/depthwise/BatchNorm/moving_mean"
  op: "VarHandleOp"
  attr {
    key: "_class"
    value {
      list {
        s: "loc:@module/MobilenetV2/expanded_conv/depthwise/BatchNorm/moving_mean"
      }
    }
  }
  attr {
    key: "container"
    value {
      s: ""
    }
  }
  attr {
    key: "dtype"
    value {
      type: DT_FLOAT
    }
  }
  attr {
    key: "shape"
    value {
      shape {
        dim {
          size: 16
        }
      }
    }
  }
  attr {
    key: "shared_name"
    value {
      s: "module/MobilenetV2/expanded_conv/depthwise/BatchNorm/moving_mean"
    }
  }
}
node {
  name: "module/MobilenetV2/expanded_conv/depthwise/BatchNorm/moving_mean/IsInitialized/VarIsInitializedOp"
  op: "VarIsInitializedOp"
  input: "module/MobilenetV2/expanded_conv/depthwise/BatchNorm/moving_mean"
}
node {
  name: "module/MobilenetV2/expanded_conv/depthwise/BatchNorm/moving_mean/Assign"
  op: "AssignVariableOp"
  input: "module/MobilenetV2/expanded_conv/depthwise/BatchNorm/moving_mean"
  input: "module/MobilenetV2/expanded_conv/depthwise/BatchNorm/moving_mean/Initializer/zeros"
  attr {
    key: "_class"
    value {
      list {
        s: "loc:@module/MobilenetV2/expanded_conv/depthwise/BatchNorm/moving_mean"
      }
    }
  }
  attr {
    key: "dtype"
    value {
      type: DT_FLOAT
    }
  }
}
node {
  name: "module/MobilenetV2/expanded_conv/depthwise/BatchNorm/moving_mean/Read/ReadVariableOp"
  op: "ReadVariableOp"
  input: "module/MobilenetV2/expanded_conv/depthwise/BatchNorm/moving_mean"
  attr {
    key: "_class"
    value {
      list {
        s: "loc:@module/MobilenetV2/expanded_conv/depthwise/BatchNorm/moving_mean"
      }
    }
  }
  attr {
    key: "dtype"
    value {
      type: DT_FLOAT
    }
  }
}
node {
  name: "module/MobilenetV2/expanded_conv/depthwise/BatchNorm/moving_variance/Initializer/ones"
  op: "Const"
  attr {
    key: "_class"
    value {
      list {
        s: "loc:@module/MobilenetV2/expanded_conv/depthwise/BatchNorm/moving_variance"
      }
    }
  }
  attr {
    key: "dtype"
    value {
      type: DT_FLOAT
    }
  }
  attr {
    key: "value"
    value {
      tensor {
        dtype: DT_FLOAT
        tensor_shape {
          dim {
            size: 16
          }
        }
        float_val: 1.0
      }
    }
  }
}
node {
  name: "module/MobilenetV2/expanded_conv/depthwise/BatchNorm/moving_variance"
  op: "VarHandleOp"
  attr {
    key: "_class"
    value {
      list {
        s: "loc:@module/MobilenetV2/expanded_conv/depthwise/BatchNorm/moving_variance"
      }
    }
  }
  attr {
    key: "container"
    value {
      s: ""
    }
  }
  attr {
    key: "dtype"
    value {
      type: DT_FLOAT
    }
  }
  attr {
    key: "shape"
    value {
      shape {
        dim {
          size: 16
        }
      }
    }
  }
  attr {
    key: "shared_name"
    value {
      s: "module/MobilenetV2/expanded_conv/depthwise/BatchNorm/moving_variance"
    }
  }
}
node {
  name: "module/MobilenetV2/expanded_conv/depthwise/BatchNorm/moving_variance/IsInitialized/VarIsInitializedOp"
  op: "VarIsInitializedOp"
  input: "module/MobilenetV2/expanded_conv/depthwise/BatchNorm/moving_variance"
}
node {
  name: "module/MobilenetV2/expanded_conv/depthwise/BatchNorm/moving_variance/Assign"
  op: "AssignVariableOp"
  input: "module/MobilenetV2/expanded_conv/depthwise/BatchNorm/moving_variance"
  input: "module/MobilenetV2/expanded_conv/depthwise/BatchNorm/moving_variance/Initializer/ones"
  attr {
    key: "_class"
    value {
      list {
        s: "loc:@module/MobilenetV2/expanded_conv/depthwise/BatchNorm/moving_variance"
      }
    }
  }
  attr {
    key: "dtype"
    value {
      type: DT_FLOAT
    }
  }
}
node {
  name: "module/MobilenetV2/expanded_conv/depthwise/BatchNorm/moving_variance/Read/ReadVariableOp"
  op: "ReadVariableOp"
  input: "module/MobilenetV2/expanded_conv/depthwise/BatchNorm/moving_variance"
  attr {
    key: "_class"
    value {
      list {
        s: "loc:@module/MobilenetV2/expanded_conv/depthwise/BatchNorm/moving_variance"
      }
    }
  }
  attr {
    key: "dtype"
    value {
      type: DT_FLOAT
    }
  }
}
node {
  name: "module/MobilenetV2/expanded_conv/depthwise/BatchNorm/ReadVariableOp"
  op: "ReadVariableOp"
  input: "module/MobilenetV2/expanded_conv/depthwise/BatchNorm/gamma"
  attr {
    key: "dtype"
    value {
      type: DT_FLOAT
    }
  }
}
node {
  name: "module/MobilenetV2/expanded_conv/depthwise/BatchNorm/ReadVariableOp_1"
  op: "ReadVariableOp"
  input: "module/MobilenetV2/expanded_conv/depthwise/BatchNorm/beta"
  attr {
    key: "dtype"
    value {
      type: DT_FLOAT
    }
  }
}
node {
  name: "module/MobilenetV2/expanded_conv/depthwise/BatchNorm/FusedBatchNorm/ReadVariableOp"
  op: "ReadVariableOp"
  input: "module/MobilenetV2/expanded_conv/depthwise/BatchNorm/moving_mean"
  attr {
    key: "dtype"
    value {
      type: DT_FLOAT
    }
  }
}
node {
  name: "module/MobilenetV2/expanded_conv/depthwise/BatchNorm/FusedBatchNorm/ReadVariableOp_1"
  op: "ReadVariableOp"
  input: "module/MobilenetV2/expanded_conv/depthwise/BatchNorm/moving_variance"
  attr {
    key: "dtype"
    value {
      type: DT_FLOAT
    }
  }
}
node {
  name: "module/MobilenetV2/expanded_conv/depthwise/BatchNorm/FusedBatchNorm"
  op: "FusedBatchNorm"
  input: "module/MobilenetV2/expanded_conv/depthwise/depthwise"
  input: "module/MobilenetV2/expanded_conv/depthwise/BatchNorm/ReadVariableOp"
  input: "module/MobilenetV2/expanded_conv/depthwise/BatchNorm/ReadVariableOp_1"
  input: "module/MobilenetV2/expanded_conv/depthwise/BatchNorm/FusedBatchNorm/ReadVariableOp"
  input: "module/MobilenetV2/expanded_conv/depthwise/BatchNorm/FusedBatchNorm/ReadVariableOp_1"
  attr {
    key: "T"
    value {
      type: DT_FLOAT
    }
  }
  attr {
    key: "data_format"
    value {
      s: "NHWC"
    }
  }
  attr {
    key: "epsilon"
    value {
      f: 0.0010000000474974513
    }
  }
  attr {
    key: "is_training"
    value {
      b: false
    }
  }
}
node {
  name: "module/MobilenetV2/expanded_conv/depthwise/BatchNorm/Const"
  op: "Const"
  attr {
    key: "dtype"
    value {
      type: DT_FLOAT
    }
  }
  attr {
    key: "value"
    value {
      tensor {
        dtype: DT_FLOAT
        tensor_shape {
        }
        float_val: 0.996999979019165
      }
    }
  }
}
node {
  name: "module/MobilenetV2/expanded_conv/depthwise/Relu6"
  op: "Relu6"
  input: "module/MobilenetV2/expanded_conv/depthwise/BatchNorm/FusedBatchNorm"
  attr {
    key: "T"
    value {
      type: DT_FLOAT
    }
  }
}
node {
  name: "module/MobilenetV2/expanded_conv/depthwise_output"
  op: "Identity"
  input: "module/MobilenetV2/expanded_conv/depthwise/Relu6"
  attr {
    key: "T"
    value {
      type: DT_FLOAT
    }
  }
}
node {
  name: "module/MobilenetV2/expanded_conv/project/weights/Initializer/truncated_normal/shape"
  op: "Const"
  attr {
    key: "_class"
    value {
      list {
        s: "loc:@module/MobilenetV2/expanded_conv/project/weights"
      }
    }
  }
  attr {
    key: "dtype"
    value {
      type: DT_INT32
    }
  }
  attr {
    key: "value"
    value {
      tensor {
        dtype: DT_INT32
        tensor_shape {
          dim {
            size: 4
          }
        }
        tensor_content: "\001\000\000\000\001\000\000\000\020\000\000\000\010\000\000\000"
      }
    }
  }
}
node {
  name: "module/MobilenetV2/expanded_conv/project/weights/Initializer/truncated_normal/mean"
  op: "Const"
  attr {
    key: "_class"
    value {
      list {
        s: "loc:@module/MobilenetV2/expanded_conv/project/weights"
      }
    }
  }
  attr {
    key: "dtype"
    value {
      type: DT_FLOAT
    }
  }
  attr {
    key: "value"
    value {
      tensor {
        dtype: DT_FLOAT
        tensor_shape {
        }
        float_val: 0.0
      }
    }
  }
}
node {
  name: "module/MobilenetV2/expanded_conv/project/weights/Initializer/truncated_normal/stddev"
  op: "Const"
  attr {
    key: "_class"
    value {
      list {
        s: "loc:@module/MobilenetV2/expanded_conv/project/weights"
      }
    }
  }
  attr {
    key: "dtype"
    value {
      type: DT_FLOAT
    }
  }
  attr {
    key: "value"
    value {
      tensor {
        dtype: DT_FLOAT
        tensor_shape {
        }
        float_val: 0.09000000357627869
      }
    }
  }
}
node {
  name: "module/MobilenetV2/expanded_conv/project/weights/Initializer/truncated_normal/TruncatedNormal"
  op: "TruncatedNormal"
  input: "module/MobilenetV2/expanded_conv/project/weights/Initializer/truncated_normal/shape"
  attr {
    key: "T"
    value {
      type: DT_INT32
    }
  }
  attr {
    key: "_class"
    value {
      list {
        s: "loc:@module/MobilenetV2/expanded_conv/project/weights"
      }
    }
  }
  attr {
    key: "dtype"
    value {
      type: DT_FLOAT
    }
  }
  attr {
    key: "seed"
    value {
      i: 0
    }
  }
  attr {
    key: "seed2"
    value {
      i: 0
    }
  }
}
node {
  name: "module/MobilenetV2/expanded_conv/project/weights/Initializer/truncated_normal/mul"
  op: "Mul"
  input: "module/MobilenetV2/expanded_conv/project/weights/Initializer/truncated_normal/TruncatedNormal"
  input: "module/MobilenetV2/expanded_conv/project/weights/Initializer/truncated_normal/stddev"
  attr {
    key: "T"
    value {
      type: DT_FLOAT
    }
  }
  attr {
    key: "_class"
    value {
      list {
        s: "loc:@module/MobilenetV2/expanded_conv/project/weights"
      }
    }
  }
}
node {
  name: "module/MobilenetV2/expanded_conv/project/weights/Initializer/truncated_normal"
  op: "Add"
  input: "module/MobilenetV2/expanded_conv/project/weights/Initializer/truncated_normal/mul"
  input: "module/MobilenetV2/expanded_conv/project/weights/Initializer/truncated_normal/mean"
  attr {
    key: "T"
    value {
      type: DT_FLOAT
    }
  }
  attr {
    key: "_class"
    value {
      list {
        s: "loc:@module/MobilenetV2/expanded_conv/project/weights"
      }
    }
  }
}
node {
  name: "module/MobilenetV2/expanded_conv/project/weights"
  op: "VarHandleOp"
  attr {
    key: "_class"
    value {
      list {
        s: "loc:@module/MobilenetV2/expanded_conv/project/weights"
      }
    }
  }
  attr {
    key: "container"
    value {
      s: ""
    }
  }
  attr {
    key: "dtype"
    value {
      type: DT_FLOAT
    }
  }
  attr {
    key: "shape"
    value {
      shape {
        dim {
          size: 1
        }
        dim {
          size: 1
        }
        dim {
          size: 16
        }
        dim {
          size: 8
        }
      }
    }
  }
  attr {
    key: "shared_name"
    value {
      s: "module/MobilenetV2/expanded_conv/project/weights"
    }
  }
}
node {
  name: "module/MobilenetV2/expanded_conv/project/weights/IsInitialized/VarIsInitializedOp"
  op: "VarIsInitializedOp"
  input: "module/MobilenetV2/expanded_conv/project/weights"
}
node {
  name: "module/MobilenetV2/expanded_conv/project/weights/Assign"
  op: "AssignVariableOp"
  input: "module/MobilenetV2/expanded_conv/project/weights"
  input: "module/MobilenetV2/expanded_conv/project/weights/Initializer/truncated_normal"
  attr {
    key: "_class"
    value {
      list {
        s: "loc:@module/MobilenetV2/expanded_conv/project/weights"
      }
    }
  }
  attr {
    key: "dtype"
    value {
      type: DT_FLOAT
    }
  }
}
node {
  name: "module/MobilenetV2/expanded_conv/project/weights/Read/ReadVariableOp"
  op: "ReadVariableOp"
  input: "module/MobilenetV2/expanded_conv/project/weights"
  attr {
    key: "_class"
    value {
      list {
        s: "loc:@module/MobilenetV2/expanded_conv/project/weights"
      }
    }
  }
  attr {
    key: "dtype"
    value {
      type: DT_FLOAT
    }
  }
}
node {
  name: "module/MobilenetV2/expanded_conv/project/kernel/Regularizer/l2_regularizer/scale"
  op: "Const"
  attr {
    key: "_class"
    value {
      list {
        s: "loc:@module/MobilenetV2/expanded_conv/project/weights"
      }
    }
  }
  attr {
    key: "dtype"
    value {
      type: DT_FLOAT
    }
  }
  attr {
    key: "value"
    value {
      tensor {
        dtype: DT_FLOAT
        tensor_shape {
        }
        float_val: 3.9999998989515007e-05
      }
    }
  }
}
node {
  name: "module/MobilenetV2/expanded_conv/project/kernel/Regularizer/l2_regularizer/L2Loss/ReadVariableOp"
  op: "ReadVariableOp"
  input: "module/MobilenetV2/expanded_conv/project/weights"
  attr {
    key: "dtype"
    value {
      type: DT_FLOAT
    }
  }
}
node {
  name: "module/MobilenetV2/expanded_conv/project/kernel/Regularizer/l2_regularizer/L2Loss"
  op: "L2Loss"
  input: "module/MobilenetV2/expanded_conv/project/kernel/Regularizer/l2_regularizer/L2Loss/ReadVariableOp"
  attr {
    key: "T"
    value {
      type: DT_FLOAT
    }
  }
  attr {
    key: "_class"
    value {
      list {
        s: "loc:@module/MobilenetV2/expanded_conv/project/weights"
      }
    }
  }
}
node {
  name: "module/MobilenetV2/expanded_conv/project/kernel/Regularizer/l2_regularizer"
  op: "Mul"
  input: "module/MobilenetV2/expanded_conv/project/kernel/Regularizer/l2_regularizer/scale"
  input: "module/MobilenetV2/expanded_conv/project/kernel/Regularizer/l2_regularizer/L2Loss"
  attr {
    key: "T"
    value {
      type: DT_FLOAT
    }
  }
  attr {
    key: "_class"
    value {
      list {
        s: "loc:@module/MobilenetV2/expanded_conv/project/weights"
      }
    }
  }
}
node {
  name: "module/MobilenetV2/expanded_conv/project/dilation_rate"
  op: "Const"
  attr {
    key: "dtype"
    value {
      type: DT_INT32
    }
  }
  attr {
    key: "value"
    value {
      tensor {
        dtype: DT_INT32
        tensor_shape {
          dim {
            size: 2
          }
        }
        tensor_content: "\001\000\000\000\001\000\000\000"
      }
    }
  }
}
node {
  name: "module/MobilenetV2/expanded_conv/project/Conv2D/ReadVariableOp"
  op: "ReadVariableOp"
  input: "module/MobilenetV2/expanded_conv/project/weights"
  attr {
    key: "dtype"
    value {
      type: DT_FLOAT
    }
  }
}
node {
  name: "module/MobilenetV2/expanded_conv/project/Conv2D"
  op: "Conv2D"
  input: "module/MobilenetV2/expanded_conv/depthwise_output"
  input: "module/MobilenetV2/expanded_conv/project/Conv2D/ReadVariableOp"
  attr {
    key: "T"
    value {
      type: DT_FLOAT
    }
  }
  attr {
    key: "data_format"
    value {
      s: "NHWC"
    }
  }
  attr {
    key: "dilations"
    value {
      list {
        i: 1
        i: 1
        i: 1
        i: 1
      }
    }
  }
  attr {
    key: "explicit_paddings"
    value {
      list {
      }
    }
  }
  attr {
    key: "padding"
    value {
      s: "SAME"
    }
  }
  attr {
    key: "strides"
    value {
      list {
        i: 1
        i: 1
        i: 1
        i: 1
      }
    }
  }
  attr {
    key: "use_cudnn_on_gpu"
    value {
      b: true
    }
  }
}
node {
  name: "module/MobilenetV2/expanded_conv/project/BatchNorm/gamma/Initializer/ones"
  op: "Const"
  attr {
    key: "_class"
    value {
      list {
        s: "loc:@module/MobilenetV2/expanded_conv/project/BatchNorm/gamma"
      }
    }
  }
  attr {
    key: "dtype"
    value {
      type: DT_FLOAT
    }
  }
  attr {
    key: "value"
    value {
      tensor {
        dtype: DT_FLOAT
        tensor_shape {
          dim {
            size: 8
          }
        }
        float_val: 1.0
      }
    }
  }
}
node {
  name: "module/MobilenetV2/expanded_conv/project/BatchNorm/gamma"
  op: "VarHandleOp"
  attr {
    key: "_class"
    value {
      list {
        s: "loc:@module/MobilenetV2/expanded_conv/project/BatchNorm/gamma"
      }
    }
  }
  attr {
    key: "container"
    value {
      s: ""
    }
  }
  attr {
    key: "dtype"
    value {
      type: DT_FLOAT
    }
  }
  attr {
    key: "shape"
    value {
      shape {
        dim {
          size: 8
        }
      }
    }
  }
  attr {
    key: "shared_name"
    value {
      s: "module/MobilenetV2/expanded_conv/project/BatchNorm/gamma"
    }
  }
}
node {
  name: "module/MobilenetV2/expanded_conv/project/BatchNorm/gamma/IsInitialized/VarIsInitializedOp"
  op: "VarIsInitializedOp"
  input: "module/MobilenetV2/expanded_conv/project/BatchNorm/gamma"
}
node {
  name: "module/MobilenetV2/expanded_conv/project/BatchNorm/gamma/Assign"
  op: "AssignVariableOp"
  input: "module/MobilenetV2/expanded_conv/project/BatchNorm/gamma"
  input: "module/MobilenetV2/expanded_conv/project/BatchNorm/gamma/Initializer/ones"
  attr {
    key: "_class"
    value {
      list {
        s: "loc:@module/MobilenetV2/expanded_conv/project/BatchNorm/gamma"
      }
    }
  }
  attr {
    key: "dtype"
    value {
      type: DT_FLOAT
    }
  }
}
node {
  name: "module/MobilenetV2/expanded_conv/project/BatchNorm/gamma/Read/ReadVariableOp"
  op: "ReadVariableOp"
  input: "module/MobilenetV2/expanded_conv/project/BatchNorm/gamma"
  attr {
    key: "_class"
    value {
      list {
        s: "loc:@module/MobilenetV2/expanded_conv/project/BatchNorm/gamma"
      }
    }
  }
  attr {
    key: "dtype"
    value {
      type: DT_FLOAT
    }
  }
}
node {
  name: "module/MobilenetV2/expanded_conv/project/BatchNorm/beta/Initializer/zeros"
  op: "Const"
  attr {
    key: "_class"
    value {
      list {
        s: "loc:@module/MobilenetV2/expanded_conv/project/BatchNorm/beta"
      }
    }
  }
  attr {
    key: "dtype"
    value {
      type: DT_FLOAT
    }
  }
  attr {
    key: "value"
    value {
      tensor {
        dtype: DT_FLOAT
        tensor_shape {
          dim {
            size: 8
          }
        }
        float_val: 0.0
      }
    }
  }
}
node {
  name: "module/MobilenetV2/expanded_conv/project/BatchNorm/beta"
  op: "VarHandleOp"
  attr {
    key: "_class"
    value {
      list {
        s: "loc:@module/MobilenetV2/expanded_conv/project/BatchNorm/beta"
      }
    }
  }
  attr {
    key: "container"
    value {
      s: ""
    }
  }
  attr {
    key: "dtype"
    value {
      type: DT_FLOAT
    }
  }
  attr {
    key: "shape"
    value {
      shape {
        dim {
          size: 8
        }
      }
    }
  }
  attr {
    key: "shared_name"
    value {
      s: "module/MobilenetV2/expanded_conv/project/BatchNorm/beta"
    }
  }
}
node {
  name: "module/MobilenetV2/expanded_conv/project/BatchNorm/beta/IsInitialized/VarIsInitializedOp"
  op: "VarIsInitializedOp"
  input: "module/MobilenetV2/expanded_conv/project/BatchNorm/beta"
}
node {
  name: "module/MobilenetV2/expanded_conv/project/BatchNorm/beta/Assign"
  op: "AssignVariableOp"
  input: "module/MobilenetV2/expanded_conv/project/BatchNorm/beta"
  input: "module/MobilenetV2/expanded_conv/project/BatchNorm/beta/Initializer/zeros"
  attr {
    key: "_class"
    value {
      list {
        s: "loc:@module/MobilenetV2/expanded_conv/project/BatchNorm/beta"
      }
    }
  }
  attr {
    key: "dtype"
    value {
      type: DT_FLOAT
    }
  }
}
node {
  name: "module/MobilenetV2/expanded_conv/project/BatchNorm/beta/Read/ReadVariableOp"
  op: "ReadVariableOp"
  input: "module/MobilenetV2/expanded_conv/project/BatchNorm/beta"
  attr {
    key: "_class"
    value {
      list {
        s: "loc:@module/MobilenetV2/expanded_conv/project/BatchNorm/beta"
      }
    }
  }
  attr {
    key: "dtype"
    value {
      type: DT_FLOAT
    }
  }
}
node {
  name: "module/MobilenetV2/expanded_conv/project/BatchNorm/moving_mean/Initializer/zeros"
  op: "Const"
  attr {
    key: "_class"
    value {
      list {
        s: "loc:@module/MobilenetV2/expanded_conv/project/BatchNorm/moving_mean"
      }
    }
  }
  attr {
    key: "dtype"
    value {
      type: DT_FLOAT
    }
  }
  attr {
    key: "value"
    value {
      tensor {
        dtype: DT_FLOAT
        tensor_shape {
          dim {
            size: 8
          }
        }
        float_val: 0.0
      }
    }
  }
}
node {
  name: "module/MobilenetV2/expanded_conv/project/BatchNorm/moving_mean"
  op: "VarHandleOp"
  attr {
    key: "_class"
    value {
      list {
        s: "loc:@module/MobilenetV2/expanded_conv/project/BatchNorm/moving_mean"
      }
    }
  }
  attr {
    key: "container"
    value {
      s: ""
    }
  }
  attr {
    key: "dtype"
    value {
      type: DT_FLOAT
    }
  }
  attr {
    key: "shape"
    value {
      shape {
        dim {
          size: 8
        }
      }
    }
  }
  attr {
    key: "shared_name"
    value {
      s: "module/MobilenetV2/expanded_conv/project/BatchNorm/moving_mean"
    }
  }
}
node {
  name: "module/MobilenetV2/expanded_conv/project/BatchNorm/moving_mean/IsInitialized/VarIsInitializedOp"
  op: "VarIsInitializedOp"
  input: "module/MobilenetV2/expanded_conv/project/BatchNorm/moving_mean"
}
node {
  name: "module/MobilenetV2/expanded_conv/project/BatchNorm/moving_mean/Assign"
  op: "AssignVariableOp"
  input: "module/MobilenetV2/expanded_conv/project/BatchNorm/moving_mean"
  input: "module/MobilenetV2/expanded_conv/project/BatchNorm/moving_mean/Initializer/zeros"
  attr {
    key: "_class"
    value {
      list {
        s: "loc:@module/MobilenetV2/expanded_conv/project/BatchNorm/moving_mean"
      }
    }
  }
  attr {
    key: "dtype"
    value {
      type: DT_FLOAT
    }
  }
}
node {
  name: "module/MobilenetV2/expanded_conv/project/BatchNorm/moving_mean/Read/ReadVariableOp"
  op: "ReadVariableOp"
  input: "module/MobilenetV2/expanded_conv/project/BatchNorm/moving_mean"
  attr {
    key: "_class"
    value {
      list {
        s: "loc:@module/MobilenetV2/expanded_conv/project/BatchNorm/moving_mean"
      }
    }
  }
  attr {
    key: "dtype"
    value {
      type: DT_FLOAT
    }
  }
}
node {
  name: "module/MobilenetV2/expanded_conv/project/BatchNorm/moving_variance/Initializer/ones"
  op: "Const"
  attr {
    key: "_class"
    value {
      list {
        s: "loc:@module/MobilenetV2/expanded_conv/project/BatchNorm/moving_variance"
      }
    }
  }
  attr {
    key: "dtype"
    value {
      type: DT_FLOAT
    }
  }
  attr {
    key: "value"
    value {
      tensor {
        dtype: DT_FLOAT
        tensor_shape {
          dim {
            size: 8
          }
        }
        float_val: 1.0
      }
    }
  }
}
node {
  name: "module/MobilenetV2/expanded_conv/project/BatchNorm/moving_variance"
  op: "VarHandleOp"
  attr {
    key: "_class"
    value {
      list {
        s: "loc:@module/MobilenetV2/expanded_conv/project/BatchNorm/moving_variance"
      }
    }
  }
  attr {
    key: "container"
    value {
      s: ""
    }
  }
  attr {
    key: "dtype"
    value {
      type: DT_FLOAT
    }
  }
  attr {
    key: "shape"
    value {
      shape {
        dim {
          size: 8
        }
      }
    }
  }
  attr {
    key: "shared_name"
    value {
      s: "module/MobilenetV2/expanded_conv/project/BatchNorm/moving_variance"
    }
  }
}
node {
  name: "module/MobilenetV2/expanded_conv/project/BatchNorm/moving_variance/IsInitialized/VarIsInitializedOp"
  op: "VarIsInitializedOp"
  input: "module/MobilenetV2/expanded_conv/project/BatchNorm/moving_variance"
}
node {
  name: "module/MobilenetV2/expanded_conv/project/BatchNorm/moving_variance/Assign"
  op: "AssignVariableOp"
  input: "module/MobilenetV2/expanded_conv/project/BatchNorm/moving_variance"
  input: "module/MobilenetV2/expanded_conv/project/BatchNorm/moving_variance/Initializer/ones"
  attr {
    key: "_class"
    value {
      list {
        s: "loc:@module/MobilenetV2/expanded_conv/project/BatchNorm/moving_variance"
      }
    }
  }
  attr {
    key: "dtype"
    value {
      type: DT_FLOAT
    }
  }
}
node {
  name: "module/MobilenetV2/expanded_conv/project/BatchNorm/moving_variance/Read/ReadVariableOp"
  op: "ReadVariableOp"
  input: "module/MobilenetV2/expanded_conv/project/BatchNorm/moving_variance"
  attr {
    key: "_class"
    value {
      list {
        s: "loc:@module/MobilenetV2/expanded_conv/project/BatchNorm/moving_variance"
      }
    }
  }
  attr {
    key: "dtype"
    value {
      type: DT_FLOAT
    }
  }
}
node {
  name: "module/MobilenetV2/expanded_conv/project/BatchNorm/ReadVariableOp"
  op: "ReadVariableOp"
  input: "module/MobilenetV2/expanded_conv/project/BatchNorm/gamma"
  attr {
    key: "dtype"
    value {
      type: DT_FLOAT
    }
  }
}
node {
  name: "module/MobilenetV2/expanded_conv/project/BatchNorm/ReadVariableOp_1"
  op: "ReadVariableOp"
  input: "module/MobilenetV2/expanded_conv/project/BatchNorm/beta"
  attr {
    key: "dtype"
    value {
      type: DT_FLOAT
    }
  }
}
node {
  name: "module/MobilenetV2/expanded_conv/project/BatchNorm/FusedBatchNorm/ReadVariableOp"
  op: "ReadVariableOp"
  input: "module/MobilenetV2/expanded_conv/project/BatchNorm/moving_mean"
  attr {
    key: "dtype"
    value {
      type: DT_FLOAT
    }
  }
}
node {
  name: "module/MobilenetV2/expanded_conv/project/BatchNorm/FusedBatchNorm/ReadVariableOp_1"
  op: "ReadVariableOp"
  input: "module/MobilenetV2/expanded_conv/project/BatchNorm/moving_variance"
  attr {
    key: "dtype"
    value {
      type: DT_FLOAT
    }
  }
}
node {
  name: "module/MobilenetV2/expanded_conv/project/BatchNorm/FusedBatchNorm"
  op: "FusedBatchNorm"
  input: "module/MobilenetV2/expanded_conv/project/Conv2D"
  input: "module/MobilenetV2/expanded_conv/project/BatchNorm/ReadVariableOp"
  input: "module/MobilenetV2/expanded_conv/project/BatchNorm/ReadVariableOp_1"
  input: "module/MobilenetV2/expanded_conv/project/BatchNorm/FusedBatchNorm/ReadVariableOp"
  input: "module/MobilenetV2/expanded_conv/project/BatchNorm/FusedBatchNorm/ReadVariableOp_1"
  attr {
    key: "T"
    value {
      type: DT_FLOAT
    }
  }
  attr {
    key: "data_format"
    value {
      s: "NHWC"
    }
  }
  attr {
    key: "epsilon"
    value {
      f: 0.0010000000474974513
    }
  }
  attr {
    key: "is_training"
    value {
      b: false
    }
  }
}
node {
  name: "module/MobilenetV2/expanded_conv/project/BatchNorm/Const"
  op: "Const"
  attr {
    key: "dtype"
    value {
      type: DT_FLOAT
    }
  }
  attr {
    key: "value"
    value {
      tensor {
        dtype: DT_FLOAT
        tensor_shape {
        }
        float_val: 0.996999979019165
      }
    }
  }
}
node {
  name: "module/MobilenetV2/expanded_conv/project/Identity"
  op: "Identity"
  input: "module/MobilenetV2/expanded_conv/project/BatchNorm/FusedBatchNorm"
  attr {
    key: "T"
    value {
      type: DT_FLOAT
    }
  }
}
node {
  name: "module/MobilenetV2/expanded_conv/output"
  op: "Identity"
  input: "module/MobilenetV2/expanded_conv/project/Identity"
  attr {
    key: "T"
    value {
      type: DT_FLOAT
    }
  }
}
node {
  name: "module/MobilenetV2/expanded_conv_1/input"
  op: "Identity"
  input: "module/MobilenetV2/expanded_conv/output"
  attr {
    key: "T"
    value {
      type: DT_FLOAT
    }
  }
}
node {
  name: "module/MobilenetV2/expanded_conv_1/expand/weights/Initializer/truncated_normal/shape"
  op: "Const"
  attr {
    key: "_class"
    value {
      list {
        s: "loc:@module/MobilenetV2/expanded_conv_1/expand/weights"
      }
    }
  }
  attr {
    key: "dtype"
    value {
      type: DT_INT32
    }
  }
  attr {
    key: "value"
    value {
      tensor {
        dtype: DT_INT32
        tensor_shape {
          dim {
            size: 4
          }
        }
        tensor_content: "\001\000\000\000\001\000\000\000\010\000\000\0000\000\000\000"
      }
    }
  }
}
node {
  name: "module/MobilenetV2/expanded_conv_1/expand/weights/Initializer/truncated_normal/mean"
  op: "Const"
  attr {
    key: "_class"
    value {
      list {
        s: "loc:@module/MobilenetV2/expanded_conv_1/expand/weights"
      }
    }
  }
  attr {
    key: "dtype"
    value {
      type: DT_FLOAT
    }
  }
  attr {
    key: "value"
    value {
      tensor {
        dtype: DT_FLOAT
        tensor_shape {
        }
        float_val: 0.0
      }
    }
  }
}
node {
  name: "module/MobilenetV2/expanded_conv_1/expand/weights/Initializer/truncated_normal/stddev"
  op: "Const"
  attr {
    key: "_class"
    value {
      list {
        s: "loc:@module/MobilenetV2/expanded_conv_1/expand/weights"
      }
    }
  }
  attr {
    key: "dtype"
    value {
      type: DT_FLOAT
    }
  }
  attr {
    key: "value"
    value {
      tensor {
        dtype: DT_FLOAT
        tensor_shape {
        }
        float_val: 0.09000000357627869
      }
    }
  }
}
node {
  name: "module/MobilenetV2/expanded_conv_1/expand/weights/Initializer/truncated_normal/TruncatedNormal"
  op: "TruncatedNormal"
  input: "module/MobilenetV2/expanded_conv_1/expand/weights/Initializer/truncated_normal/shape"
  attr {
    key: "T"
    value {
      type: DT_INT32
    }
  }
  attr {
    key: "_class"
    value {
      list {
        s: "loc:@module/MobilenetV2/expanded_conv_1/expand/weights"
      }
    }
  }
  attr {
    key: "dtype"
    value {
      type: DT_FLOAT
    }
  }
  attr {
    key: "seed"
    value {
      i: 0
    }
  }
  attr {
    key: "seed2"
    value {
      i: 0
    }
  }
}
node {
  name: "module/MobilenetV2/expanded_conv_1/expand/weights/Initializer/truncated_normal/mul"
  op: "Mul"
  input: "module/MobilenetV2/expanded_conv_1/expand/weights/Initializer/truncated_normal/TruncatedNormal"
  input: "module/MobilenetV2/expanded_conv_1/expand/weights/Initializer/truncated_normal/stddev"
  attr {
    key: "T"
    value {
      type: DT_FLOAT
    }
  }
  attr {
    key: "_class"
    value {
      list {
        s: "loc:@module/MobilenetV2/expanded_conv_1/expand/weights"
      }
    }
  }
}
node {
  name: "module/MobilenetV2/expanded_conv_1/expand/weights/Initializer/truncated_normal"
  op: "Add"
  input: "module/MobilenetV2/expanded_conv_1/expand/weights/Initializer/truncated_normal/mul"
  input: "module/MobilenetV2/expanded_conv_1/expand/weights/Initializer/truncated_normal/mean"
  attr {
    key: "T"
    value {
      type: DT_FLOAT
    }
  }
  attr {
    key: "_class"
    value {
      list {
        s: "loc:@module/MobilenetV2/expanded_conv_1/expand/weights"
      }
    }
  }
}
node {
  name: "module/MobilenetV2/expanded_conv_1/expand/weights"
  op: "VarHandleOp"
  attr {
    key: "_class"
    value {
      list {
        s: "loc:@module/MobilenetV2/expanded_conv_1/expand/weights"
      }
    }
  }
  attr {
    key: "container"
    value {
      s: ""
    }
  }
  attr {
    key: "dtype"
    value {
      type: DT_FLOAT
    }
  }
  attr {
    key: "shape"
    value {
      shape {
        dim {
          size: 1
        }
        dim {
          size: 1
        }
        dim {
          size: 8
        }
        dim {
          size: 48
        }
      }
    }
  }
  attr {
    key: "shared_name"
    value {
      s: "module/MobilenetV2/expanded_conv_1/expand/weights"
    }
  }
}
node {
  name: "module/MobilenetV2/expanded_conv_1/expand/weights/IsInitialized/VarIsInitializedOp"
  op: "VarIsInitializedOp"
  input: "module/MobilenetV2/expanded_conv_1/expand/weights"
}
node {
  name: "module/MobilenetV2/expanded_conv_1/expand/weights/Assign"
  op: "AssignVariableOp"
  input: "module/MobilenetV2/expanded_conv_1/expand/weights"
  input: "module/MobilenetV2/expanded_conv_1/expand/weights/Initializer/truncated_normal"
  attr {
    key: "_class"
    value {
      list {
        s: "loc:@module/MobilenetV2/expanded_conv_1/expand/weights"
      }
    }
  }
  attr {
    key: "dtype"
    value {
      type: DT_FLOAT
    }
  }
}
node {
  name: "module/MobilenetV2/expanded_conv_1/expand/weights/Read/ReadVariableOp"
  op: "ReadVariableOp"
  input: "module/MobilenetV2/expanded_conv_1/expand/weights"
  attr {
    key: "_class"
    value {
      list {
        s: "loc:@module/MobilenetV2/expanded_conv_1/expand/weights"
      }
    }
  }
  attr {
    key: "dtype"
    value {
      type: DT_FLOAT
    }
  }
}
node {
  name: "module/MobilenetV2/expanded_conv_1/expand/kernel/Regularizer/l2_regularizer/scale"
  op: "Const"
  attr {
    key: "_class"
    value {
      list {
        s: "loc:@module/MobilenetV2/expanded_conv_1/expand/weights"
      }
    }
  }
  attr {
    key: "dtype"
    value {
      type: DT_FLOAT
    }
  }
  attr {
    key: "value"
    value {
      tensor {
        dtype: DT_FLOAT
        tensor_shape {
        }
        float_val: 3.9999998989515007e-05
      }
    }
  }
}
node {
  name: "module/MobilenetV2/expanded_conv_1/expand/kernel/Regularizer/l2_regularizer/L2Loss/ReadVariableOp"
  op: "ReadVariableOp"
  input: "module/MobilenetV2/expanded_conv_1/expand/weights"
  attr {
    key: "dtype"
    value {
      type: DT_FLOAT
    }
  }
}
node {
  name: "module/MobilenetV2/expanded_conv_1/expand/kernel/Regularizer/l2_regularizer/L2Loss"
  op: "L2Loss"
  input: "module/MobilenetV2/expanded_conv_1/expand/kernel/Regularizer/l2_regularizer/L2Loss/ReadVariableOp"
  attr {
    key: "T"
    value {
      type: DT_FLOAT
    }
  }
  attr {
    key: "_class"
    value {
      list {
        s: "loc:@module/MobilenetV2/expanded_conv_1/expand/weights"
      }
    }
  }
}
node {
  name: "module/MobilenetV2/expanded_conv_1/expand/kernel/Regularizer/l2_regularizer"
  op: "Mul"
  input: "module/MobilenetV2/expanded_conv_1/expand/kernel/Regularizer/l2_regularizer/scale"
  input: "module/MobilenetV2/expanded_conv_1/expand/kernel/Regularizer/l2_regularizer/L2Loss"
  attr {
    key: "T"
    value {
      type: DT_FLOAT
    }
  }
  attr {
    key: "_class"
    value {
      list {
        s: "loc:@module/MobilenetV2/expanded_conv_1/expand/weights"
      }
    }
  }
}
node {
  name: "module/MobilenetV2/expanded_conv_1/expand/dilation_rate"
  op: "Const"
  attr {
    key: "dtype"
    value {
      type: DT_INT32
    }
  }
  attr {
    key: "value"
    value {
      tensor {
        dtype: DT_INT32
        tensor_shape {
          dim {
            size: 2
          }
        }
        tensor_content: "\001\000\000\000\001\000\000\000"
      }
    }
  }
}
node {
  name: "module/MobilenetV2/expanded_conv_1/expand/Conv2D/ReadVariableOp"
  op: "ReadVariableOp"
  input: "module/MobilenetV2/expanded_conv_1/expand/weights"
  attr {
    key: "dtype"
    value {
      type: DT_FLOAT
    }
  }
}
node {
  name: "module/MobilenetV2/expanded_conv_1/expand/Conv2D"
  op: "Conv2D"
  input: "module/MobilenetV2/expanded_conv_1/input"
  input: "module/MobilenetV2/expanded_conv_1/expand/Conv2D/ReadVariableOp"
  attr {
    key: "T"
    value {
      type: DT_FLOAT
    }
  }
  attr {
    key: "data_format"
    value {
      s: "NHWC"
    }
  }
  attr {
    key: "dilations"
    value {
      list {
        i: 1
        i: 1
        i: 1
        i: 1
      }
    }
  }
  attr {
    key: "explicit_paddings"
    value {
      list {
      }
    }
  }
  attr {
    key: "padding"
    value {
      s: "SAME"
    }
  }
  attr {
    key: "strides"
    value {
      list {
        i: 1
        i: 1
        i: 1
        i: 1
      }
    }
  }
  attr {
    key: "use_cudnn_on_gpu"
    value {
      b: true
    }
  }
}
node {
  name: "module/MobilenetV2/expanded_conv_1/expand/BatchNorm/gamma/Initializer/ones"
  op: "Const"
  attr {
    key: "_class"
    value {
      list {
        s: "loc:@module/MobilenetV2/expanded_conv_1/expand/BatchNorm/gamma"
      }
    }
  }
  attr {
    key: "dtype"
    value {
      type: DT_FLOAT
    }
  }
  attr {
    key: "value"
    value {
      tensor {
        dtype: DT_FLOAT
        tensor_shape {
          dim {
            size: 48
          }
        }
        float_val: 1.0
      }
    }
  }
}
node {
  name: "module/MobilenetV2/expanded_conv_1/expand/BatchNorm/gamma"
  op: "VarHandleOp"
  attr {
    key: "_class"
    value {
      list {
        s: "loc:@module/MobilenetV2/expanded_conv_1/expand/BatchNorm/gamma"
      }
    }
  }
  attr {
    key: "container"
    value {
      s: ""
    }
  }
  attr {
    key: "dtype"
    value {
      type: DT_FLOAT
    }
  }
  attr {
    key: "shape"
    value {
      shape {
        dim {
          size: 48
        }
      }
    }
  }
  attr {
    key: "shared_name"
    value {
      s: "module/MobilenetV2/expanded_conv_1/expand/BatchNorm/gamma"
    }
  }
}
node {
  name: "module/MobilenetV2/expanded_conv_1/expand/BatchNorm/gamma/IsInitialized/VarIsInitializedOp"
  op: "VarIsInitializedOp"
  input: "module/MobilenetV2/expanded_conv_1/expand/BatchNorm/gamma"
}
node {
  name: "module/MobilenetV2/expanded_conv_1/expand/BatchNorm/gamma/Assign"
  op: "AssignVariableOp"
  input: "module/MobilenetV2/expanded_conv_1/expand/BatchNorm/gamma"
  input: "module/MobilenetV2/expanded_conv_1/expand/BatchNorm/gamma/Initializer/ones"
  attr {
    key: "_class"
    value {
      list {
        s: "loc:@module/MobilenetV2/expanded_conv_1/expand/BatchNorm/gamma"
      }
    }
  }
  attr {
    key: "dtype"
    value {
      type: DT_FLOAT
    }
  }
}
node {
  name: "module/MobilenetV2/expanded_conv_1/expand/BatchNorm/gamma/Read/ReadVariableOp"
  op: "ReadVariableOp"
  input: "module/MobilenetV2/expanded_conv_1/expand/BatchNorm/gamma"
  attr {
    key: "_class"
    value {
      list {
        s: "loc:@module/MobilenetV2/expanded_conv_1/expand/BatchNorm/gamma"
      }
    }
  }
  attr {
    key: "dtype"
    value {
      type: DT_FLOAT
    }
  }
}
node {
  name: "module/MobilenetV2/expanded_conv_1/expand/BatchNorm/beta/Initializer/zeros"
  op: "Const"
  attr {
    key: "_class"
    value {
      list {
        s: "loc:@module/MobilenetV2/expanded_conv_1/expand/BatchNorm/beta"
      }
    }
  }
  attr {
    key: "dtype"
    value {
      type: DT_FLOAT
    }
  }
  attr {
    key: "value"
    value {
      tensor {
        dtype: DT_FLOAT
        tensor_shape {
          dim {
            size: 48
          }
        }
        float_val: 0.0
      }
    }
  }
}
node {
  name: "module/MobilenetV2/expanded_conv_1/expand/BatchNorm/beta"
  op: "VarHandleOp"
  attr {
    key: "_class"
    value {
      list {
        s: "loc:@module/MobilenetV2/expanded_conv_1/expand/BatchNorm/beta"
      }
    }
  }
  attr {
    key: "container"
    value {
      s: ""
    }
  }
  attr {
    key: "dtype"
    value {
      type: DT_FLOAT
    }
  }
  attr {
    key: "shape"
    value {
      shape {
        dim {
          size: 48
        }
      }
    }
  }
  attr {
    key: "shared_name"
    value {
      s: "module/MobilenetV2/expanded_conv_1/expand/BatchNorm/beta"
    }
  }
}
node {
  name: "module/MobilenetV2/expanded_conv_1/expand/BatchNorm/beta/IsInitialized/VarIsInitializedOp"
  op: "VarIsInitializedOp"
  input: "module/MobilenetV2/expanded_conv_1/expand/BatchNorm/beta"
}
node {
  name: "module/MobilenetV2/expanded_conv_1/expand/BatchNorm/beta/Assign"
  op: "AssignVariableOp"
  input: "module/MobilenetV2/expanded_conv_1/expand/BatchNorm/beta"
  input: "module/MobilenetV2/expanded_conv_1/expand/BatchNorm/beta/Initializer/zeros"
  attr {
    key: "_class"
    value {
      list {
        s: "loc:@module/MobilenetV2/expanded_conv_1/expand/BatchNorm/beta"
      }
    }
  }
  attr {
    key: "dtype"
    value {
      type: DT_FLOAT
    }
  }
}
node {
  name: "module/MobilenetV2/expanded_conv_1/expand/BatchNorm/beta/Read/ReadVariableOp"
  op: "ReadVariableOp"
  input: "module/MobilenetV2/expanded_conv_1/expand/BatchNorm/beta"
  attr {
    key: "_class"
    value {
      list {
        s: "loc:@module/MobilenetV2/expanded_conv_1/expand/BatchNorm/beta"
      }
    }
  }
  attr {
    key: "dtype"
    value {
      type: DT_FLOAT
    }
  }
}
node {
  name: "module/MobilenetV2/expanded_conv_1/expand/BatchNorm/moving_mean/Initializer/zeros"
  op: "Const"
  attr {
    key: "_class"
    value {
      list {
        s: "loc:@module/MobilenetV2/expanded_conv_1/expand/BatchNorm/moving_mean"
      }
    }
  }
  attr {
    key: "dtype"
    value {
      type: DT_FLOAT
    }
  }
  attr {
    key: "value"
    value {
      tensor {
        dtype: DT_FLOAT
        tensor_shape {
          dim {
            size: 48
          }
        }
        float_val: 0.0
      }
    }
  }
}
node {
  name: "module/MobilenetV2/expanded_conv_1/expand/BatchNorm/moving_mean"
  op: "VarHandleOp"
  attr {
    key: "_class"
    value {
      list {
        s: "loc:@module/MobilenetV2/expanded_conv_1/expand/BatchNorm/moving_mean"
      }
    }
  }
  attr {
    key: "container"
    value {
      s: ""
    }
  }
  attr {
    key: "dtype"
    value {
      type: DT_FLOAT
    }
  }
  attr {
    key: "shape"
    value {
      shape {
        dim {
          size: 48
        }
      }
    }
  }
  attr {
    key: "shared_name"
    value {
      s: "module/MobilenetV2/expanded_conv_1/expand/BatchNorm/moving_mean"
    }
  }
}
node {
  name: "module/MobilenetV2/expanded_conv_1/expand/BatchNorm/moving_mean/IsInitialized/VarIsInitializedOp"
  op: "VarIsInitializedOp"
  input: "module/MobilenetV2/expanded_conv_1/expand/BatchNorm/moving_mean"
}
node {
  name: "module/MobilenetV2/expanded_conv_1/expand/BatchNorm/moving_mean/Assign"
  op: "AssignVariableOp"
  input: "module/MobilenetV2/expanded_conv_1/expand/BatchNorm/moving_mean"
  input: "module/MobilenetV2/expanded_conv_1/expand/BatchNorm/moving_mean/Initializer/zeros"
  attr {
    key: "_class"
    value {
      list {
        s: "loc:@module/MobilenetV2/expanded_conv_1/expand/BatchNorm/moving_mean"
      }
    }
  }
  attr {
    key: "dtype"
    value {
      type: DT_FLOAT
    }
  }
}
node {
  name: "module/MobilenetV2/expanded_conv_1/expand/BatchNorm/moving_mean/Read/ReadVariableOp"
  op: "ReadVariableOp"
  input: "module/MobilenetV2/expanded_conv_1/expand/BatchNorm/moving_mean"
  attr {
    key: "_class"
    value {
      list {
        s: "loc:@module/MobilenetV2/expanded_conv_1/expand/BatchNorm/moving_mean"
      }
    }
  }
  attr {
    key: "dtype"
    value {
      type: DT_FLOAT
    }
  }
}
node {
  name: "module/MobilenetV2/expanded_conv_1/expand/BatchNorm/moving_variance/Initializer/ones"
  op: "Const"
  attr {
    key: "_class"
    value {
      list {
        s: "loc:@module/MobilenetV2/expanded_conv_1/expand/BatchNorm/moving_variance"
      }
    }
  }
  attr {
    key: "dtype"
    value {
      type: DT_FLOAT
    }
  }
  attr {
    key: "value"
    value {
      tensor {
        dtype: DT_FLOAT
        tensor_shape {
          dim {
            size: 48
          }
        }
        float_val: 1.0
      }
    }
  }
}
node {
  name: "module/MobilenetV2/expanded_conv_1/expand/BatchNorm/moving_variance"
  op: "VarHandleOp"
  attr {
    key: "_class"
    value {
      list {
        s: "loc:@module/MobilenetV2/expanded_conv_1/expand/BatchNorm/moving_variance"
      }
    }
  }
  attr {
    key: "container"
    value {
      s: ""
    }
  }
  attr {
    key: "dtype"
    value {
      type: DT_FLOAT
    }
  }
  attr {
    key: "shape"
    value {
      shape {
        dim {
          size: 48
        }
      }
    }
  }
  attr {
    key: "shared_name"
    value {
      s: "module/MobilenetV2/expanded_conv_1/expand/BatchNorm/moving_variance"
    }
  }
}
node {
  name: "module/MobilenetV2/expanded_conv_1/expand/BatchNorm/moving_variance/IsInitialized/VarIsInitializedOp"
  op: "VarIsInitializedOp"
  input: "module/MobilenetV2/expanded_conv_1/expand/BatchNorm/moving_variance"
}
node {
  name: "module/MobilenetV2/expanded_conv_1/expand/BatchNorm/moving_variance/Assign"
  op: "AssignVariableOp"
  input: "module/MobilenetV2/expanded_conv_1/expand/BatchNorm/moving_variance"
  input: "module/MobilenetV2/expanded_conv_1/expand/BatchNorm/moving_variance/Initializer/ones"
  attr {
    key: "_class"
    value {
      list {
        s: "loc:@module/MobilenetV2/expanded_conv_1/expand/BatchNorm/moving_variance"
      }
    }
  }
  attr {
    key: "dtype"
    value {
      type: DT_FLOAT
    }
  }
}
node {
  name: "module/MobilenetV2/expanded_conv_1/expand/BatchNorm/moving_variance/Read/ReadVariableOp"
  op: "ReadVariableOp"
  input: "module/MobilenetV2/expanded_conv_1/expand/BatchNorm/moving_variance"
  attr {
    key: "_class"
    value {
      list {
        s: "loc:@module/MobilenetV2/expanded_conv_1/expand/BatchNorm/moving_variance"
      }
    }
  }
  attr {
    key: "dtype"
    value {
      type: DT_FLOAT
    }
  }
}
node {
  name: "module/MobilenetV2/expanded_conv_1/expand/BatchNorm/ReadVariableOp"
  op: "ReadVariableOp"
  input: "module/MobilenetV2/expanded_conv_1/expand/BatchNorm/gamma"
  attr {
    key: "dtype"
    value {
      type: DT_FLOAT
    }
  }
}
node {
  name: "module/MobilenetV2/expanded_conv_1/expand/BatchNorm/ReadVariableOp_1"
  op: "ReadVariableOp"
  input: "module/MobilenetV2/expanded_conv_1/expand/BatchNorm/beta"
  attr {
    key: "dtype"
    value {
      type: DT_FLOAT
    }
  }
}
node {
  name: "module/MobilenetV2/expanded_conv_1/expand/BatchNorm/FusedBatchNorm/ReadVariableOp"
  op: "ReadVariableOp"
  input: "module/MobilenetV2/expanded_conv_1/expand/BatchNorm/moving_mean"
  attr {
    key: "dtype"
    value {
      type: DT_FLOAT
    }
  }
}
node {
  name: "module/MobilenetV2/expanded_conv_1/expand/BatchNorm/FusedBatchNorm/ReadVariableOp_1"
  op: "ReadVariableOp"
  input: "module/MobilenetV2/expanded_conv_1/expand/BatchNorm/moving_variance"
  attr {
    key: "dtype"
    value {
      type: DT_FLOAT
    }
  }
}
node {
  name: "module/MobilenetV2/expanded_conv_1/expand/BatchNorm/FusedBatchNorm"
  op: "FusedBatchNorm"
  input: "module/MobilenetV2/expanded_conv_1/expand/Conv2D"
  input: "module/MobilenetV2/expanded_conv_1/expand/BatchNorm/ReadVariableOp"
  input: "module/MobilenetV2/expanded_conv_1/expand/BatchNorm/ReadVariableOp_1"
  input: "module/MobilenetV2/expanded_conv_1/expand/BatchNorm/FusedBatchNorm/ReadVariableOp"
  input: "module/MobilenetV2/expanded_conv_1/expand/BatchNorm/FusedBatchNorm/ReadVariableOp_1"
  attr {
    key: "T"
    value {
      type: DT_FLOAT
    }
  }
  attr {
    key: "data_format"
    value {
      s: "NHWC"
    }
  }
  attr {
    key: "epsilon"
    value {
      f: 0.0010000000474974513
    }
  }
  attr {
    key: "is_training"
    value {
      b: false
    }
  }
}
node {
  name: "module/MobilenetV2/expanded_conv_1/expand/BatchNorm/Const"
  op: "Const"
  attr {
    key: "dtype"
    value {
      type: DT_FLOAT
    }
  }
  attr {
    key: "value"
    value {
      tensor {
        dtype: DT_FLOAT
        tensor_shape {
        }
        float_val: 0.996999979019165
      }
    }
  }
}
node {
  name: "module/MobilenetV2/expanded_conv_1/expand/Relu6"
  op: "Relu6"
  input: "module/MobilenetV2/expanded_conv_1/expand/BatchNorm/FusedBatchNorm"
  attr {
    key: "T"
    value {
      type: DT_FLOAT
    }
  }
}
node {
  name: "module/MobilenetV2/expanded_conv_1/expansion_output"
  op: "Identity"
  input: "module/MobilenetV2/expanded_conv_1/expand/Relu6"
  attr {
    key: "T"
    value {
      type: DT_FLOAT
    }
  }
}
node {
  name: "module/MobilenetV2/expanded_conv_1/depthwise/depthwise_weights/Initializer/truncated_normal/shape"
  op: "Const"
  attr {
    key: "_class"
    value {
      list {
        s: "loc:@module/MobilenetV2/expanded_conv_1/depthwise/depthwise_weights"
      }
    }
  }
  attr {
    key: "dtype"
    value {
      type: DT_INT32
    }
  }
  attr {
    key: "value"
    value {
      tensor {
        dtype: DT_INT32
        tensor_shape {
          dim {
            size: 4
          }
        }
        tensor_content: "\003\000\000\000\003\000\000\0000\000\000\000\001\000\000\000"
      }
    }
  }
}
node {
  name: "module/MobilenetV2/expanded_conv_1/depthwise/depthwise_weights/Initializer/truncated_normal/mean"
  op: "Const"
  attr {
    key: "_class"
    value {
      list {
        s: "loc:@module/MobilenetV2/expanded_conv_1/depthwise/depthwise_weights"
      }
    }
  }
  attr {
    key: "dtype"
    value {
      type: DT_FLOAT
    }
  }
  attr {
    key: "value"
    value {
      tensor {
        dtype: DT_FLOAT
        tensor_shape {
        }
        float_val: 0.0
      }
    }
  }
}
node {
  name: "module/MobilenetV2/expanded_conv_1/depthwise/depthwise_weights/Initializer/truncated_normal/stddev"
  op: "Const"
  attr {
    key: "_class"
    value {
      list {
        s: "loc:@module/MobilenetV2/expanded_conv_1/depthwise/depthwise_weights"
      }
    }
  }
  attr {
    key: "dtype"
    value {
      type: DT_FLOAT
    }
  }
  attr {
    key: "value"
    value {
      tensor {
        dtype: DT_FLOAT
        tensor_shape {
        }
        float_val: 0.09000000357627869
      }
    }
  }
}
node {
  name: "module/MobilenetV2/expanded_conv_1/depthwise/depthwise_weights/Initializer/truncated_normal/TruncatedNormal"
  op: "TruncatedNormal"
  input: "module/MobilenetV2/expanded_conv_1/depthwise/depthwise_weights/Initializer/truncated_normal/shape"
  attr {
    key: "T"
    value {
      type: DT_INT32
    }
  }
  attr {
    key: "_class"
    value {
      list {
        s: "loc:@module/MobilenetV2/expanded_conv_1/depthwise/depthwise_weights"
      }
    }
  }
  attr {
    key: "dtype"
    value {
      type: DT_FLOAT
    }
  }
  attr {
    key: "seed"
    value {
      i: 0
    }
  }
  attr {
    key: "seed2"
    value {
      i: 0
    }
  }
}
node {
  name: "module/MobilenetV2/expanded_conv_1/depthwise/depthwise_weights/Initializer/truncated_normal/mul"
  op: "Mul"
  input: "module/MobilenetV2/expanded_conv_1/depthwise/depthwise_weights/Initializer/truncated_normal/TruncatedNormal"
  input: "module/MobilenetV2/expanded_conv_1/depthwise/depthwise_weights/Initializer/truncated_normal/stddev"
  attr {
    key: "T"
    value {
      type: DT_FLOAT
    }
  }
  attr {
    key: "_class"
    value {
      list {
        s: "loc:@module/MobilenetV2/expanded_conv_1/depthwise/depthwise_weights"
      }
    }
  }
}
node {
  name: "module/MobilenetV2/expanded_conv_1/depthwise/depthwise_weights/Initializer/truncated_normal"
  op: "Add"
  input: "module/MobilenetV2/expanded_conv_1/depthwise/depthwise_weights/Initializer/truncated_normal/mul"
  input: "module/MobilenetV2/expanded_conv_1/depthwise/depthwise_weights/Initializer/truncated_normal/mean"
  attr {
    key: "T"
    value {
      type: DT_FLOAT
    }
  }
  attr {
    key: "_class"
    value {
      list {
        s: "loc:@module/MobilenetV2/expanded_conv_1/depthwise/depthwise_weights"
      }
    }
  }
}
node {
  name: "module/MobilenetV2/expanded_conv_1/depthwise/depthwise_weights"
  op: "VarHandleOp"
  attr {
    key: "_class"
    value {
      list {
        s: "loc:@module/MobilenetV2/expanded_conv_1/depthwise/depthwise_weights"
      }
    }
  }
  attr {
    key: "container"
    value {
      s: ""
    }
  }
  attr {
    key: "dtype"
    value {
      type: DT_FLOAT
    }
  }
  attr {
    key: "shape"
    value {
      shape {
        dim {
          size: 3
        }
        dim {
          size: 3
        }
        dim {
          size: 48
        }
        dim {
          size: 1
        }
      }
    }
  }
  attr {
    key: "shared_name"
    value {
      s: "module/MobilenetV2/expanded_conv_1/depthwise/depthwise_weights"
    }
  }
}
node {
  name: "module/MobilenetV2/expanded_conv_1/depthwise/depthwise_weights/IsInitialized/VarIsInitializedOp"
  op: "VarIsInitializedOp"
  input: "module/MobilenetV2/expanded_conv_1/depthwise/depthwise_weights"
}
node {
  name: "module/MobilenetV2/expanded_conv_1/depthwise/depthwise_weights/Assign"
  op: "AssignVariableOp"
  input: "module/MobilenetV2/expanded_conv_1/depthwise/depthwise_weights"
  input: "module/MobilenetV2/expanded_conv_1/depthwise/depthwise_weights/Initializer/truncated_normal"
  attr {
    key: "_class"
    value {
      list {
        s: "loc:@module/MobilenetV2/expanded_conv_1/depthwise/depthwise_weights"
      }
    }
  }
  attr {
    key: "dtype"
    value {
      type: DT_FLOAT
    }
  }
}
node {
  name: "module/MobilenetV2/expanded_conv_1/depthwise/depthwise_weights/Read/ReadVariableOp"
  op: "ReadVariableOp"
  input: "module/MobilenetV2/expanded_conv_1/depthwise/depthwise_weights"
  attr {
    key: "_class"
    value {
      list {
        s: "loc:@module/MobilenetV2/expanded_conv_1/depthwise/depthwise_weights"
      }
    }
  }
  attr {
    key: "dtype"
    value {
      type: DT_FLOAT
    }
  }
}
node {
  name: "module/MobilenetV2/expanded_conv_1/depthwise/depthwise/ReadVariableOp"
  op: "ReadVariableOp"
  input: "module/MobilenetV2/expanded_conv_1/depthwise/depthwise_weights"
  attr {
    key: "dtype"
    value {
      type: DT_FLOAT
    }
  }
}
node {
  name: "module/MobilenetV2/expanded_conv_1/depthwise/depthwise/Shape"
  op: "Const"
  attr {
    key: "dtype"
    value {
      type: DT_INT32
    }
  }
  attr {
    key: "value"
    value {
      tensor {
        dtype: DT_INT32
        tensor_shape {
          dim {
            size: 4
          }
        }
        tensor_content: "\003\000\000\000\003\000\000\0000\000\000\000\001\000\000\000"
      }
    }
  }
}
node {
  name: "module/MobilenetV2/expanded_conv_1/depthwise/depthwise/dilation_rate"
  op: "Const"
  attr {
    key: "dtype"
    value {
      type: DT_INT32
    }
  }
  attr {
    key: "value"
    value {
      tensor {
        dtype: DT_INT32
        tensor_shape {
          dim {
            size: 2
          }
        }
        tensor_content: "\001\000\000\000\001\000\000\000"
      }
    }
  }
}
node {
  name: "module/MobilenetV2/expanded_conv_1/depthwise/depthwise"
  op: "DepthwiseConv2dNative"
  input: "module/MobilenetV2/expanded_conv_1/expansion_output"
  input: "module/MobilenetV2/expanded_conv_1/depthwise/depthwise/ReadVariableOp"
  attr {
    key: "T"
    value {
      type: DT_FLOAT
    }
  }
  attr {
    key: "data_format"
    value {
      s: "NHWC"
    }
  }
  attr {
    key: "dilations"
    value {
      list {
        i: 1
        i: 1
        i: 1
        i: 1
      }
    }
  }
  attr {
    key: "padding"
    value {
      s: "SAME"
    }
  }
  attr {
    key: "strides"
    value {
      list {
        i: 1
        i: 2
        i: 2
        i: 1
      }
    }
  }
}
node {
  name: "module/MobilenetV2/expanded_conv_1/depthwise/BatchNorm/gamma/Initializer/ones"
  op: "Const"
  attr {
    key: "_class"
    value {
      list {
        s: "loc:@module/MobilenetV2/expanded_conv_1/depthwise/BatchNorm/gamma"
      }
    }
  }
  attr {
    key: "dtype"
    value {
      type: DT_FLOAT
    }
  }
  attr {
    key: "value"
    value {
      tensor {
        dtype: DT_FLOAT
        tensor_shape {
          dim {
            size: 48
          }
        }
        float_val: 1.0
      }
    }
  }
}
node {
  name: "module/MobilenetV2/expanded_conv_1/depthwise/BatchNorm/gamma"
  op: "VarHandleOp"
  attr {
    key: "_class"
    value {
      list {
        s: "loc:@module/MobilenetV2/expanded_conv_1/depthwise/BatchNorm/gamma"
      }
    }
  }
  attr {
    key: "container"
    value {
      s: ""
    }
  }
  attr {
    key: "dtype"
    value {
      type: DT_FLOAT
    }
  }
  attr {
    key: "shape"
    value {
      shape {
        dim {
          size: 48
        }
      }
    }
  }
  attr {
    key: "shared_name"
    value {
      s: "module/MobilenetV2/expanded_conv_1/depthwise/BatchNorm/gamma"
    }
  }
}
node {
  name: "module/MobilenetV2/expanded_conv_1/depthwise/BatchNorm/gamma/IsInitialized/VarIsInitializedOp"
  op: "VarIsInitializedOp"
  input: "module/MobilenetV2/expanded_conv_1/depthwise/BatchNorm/gamma"
}
node {
  name: "module/MobilenetV2/expanded_conv_1/depthwise/BatchNorm/gamma/Assign"
  op: "AssignVariableOp"
  input: "module/MobilenetV2/expanded_conv_1/depthwise/BatchNorm/gamma"
  input: "module/MobilenetV2/expanded_conv_1/depthwise/BatchNorm/gamma/Initializer/ones"
  attr {
    key: "_class"
    value {
      list {
        s: "loc:@module/MobilenetV2/expanded_conv_1/depthwise/BatchNorm/gamma"
      }
    }
  }
  attr {
    key: "dtype"
    value {
      type: DT_FLOAT
    }
  }
}
node {
  name: "module/MobilenetV2/expanded_conv_1/depthwise/BatchNorm/gamma/Read/ReadVariableOp"
  op: "ReadVariableOp"
  input: "module/MobilenetV2/expanded_conv_1/depthwise/BatchNorm/gamma"
  attr {
    key: "_class"
    value {
      list {
        s: "loc:@module/MobilenetV2/expanded_conv_1/depthwise/BatchNorm/gamma"
      }
    }
  }
  attr {
    key: "dtype"
    value {
      type: DT_FLOAT
    }
  }
}
node {
  name: "module/MobilenetV2/expanded_conv_1/depthwise/BatchNorm/beta/Initializer/zeros"
  op: "Const"
  attr {
    key: "_class"
    value {
      list {
        s: "loc:@module/MobilenetV2/expanded_conv_1/depthwise/BatchNorm/beta"
      }
    }
  }
  attr {
    key: "dtype"
    value {
      type: DT_FLOAT
    }
  }
  attr {
    key: "value"
    value {
      tensor {
        dtype: DT_FLOAT
        tensor_shape {
          dim {
            size: 48
          }
        }
        float_val: 0.0
      }
    }
  }
}
node {
  name: "module/MobilenetV2/expanded_conv_1/depthwise/BatchNorm/beta"
  op: "VarHandleOp"
  attr {
    key: "_class"
    value {
      list {
        s: "loc:@module/MobilenetV2/expanded_conv_1/depthwise/BatchNorm/beta"
      }
    }
  }
  attr {
    key: "container"
    value {
      s: ""
    }
  }
  attr {
    key: "dtype"
    value {
      type: DT_FLOAT
    }
  }
  attr {
    key: "shape"
    value {
      shape {
        dim {
          size: 48
        }
      }
    }
  }
  attr {
    key: "shared_name"
    value {
      s: "module/MobilenetV2/expanded_conv_1/depthwise/BatchNorm/beta"
    }
  }
}
node {
  name: "module/MobilenetV2/expanded_conv_1/depthwise/BatchNorm/beta/IsInitialized/VarIsInitializedOp"
  op: "VarIsInitializedOp"
  input: "module/MobilenetV2/expanded_conv_1/depthwise/BatchNorm/beta"
}
node {
  name: "module/MobilenetV2/expanded_conv_1/depthwise/BatchNorm/beta/Assign"
  op: "AssignVariableOp"
  input: "module/MobilenetV2/expanded_conv_1/depthwise/BatchNorm/beta"
  input: "module/MobilenetV2/expanded_conv_1/depthwise/BatchNorm/beta/Initializer/zeros"
  attr {
    key: "_class"
    value {
      list {
        s: "loc:@module/MobilenetV2/expanded_conv_1/depthwise/BatchNorm/beta"
      }
    }
  }
  attr {
    key: "dtype"
    value {
      type: DT_FLOAT
    }
  }
}
node {
  name: "module/MobilenetV2/expanded_conv_1/depthwise/BatchNorm/beta/Read/ReadVariableOp"
  op: "ReadVariableOp"
  input: "module/MobilenetV2/expanded_conv_1/depthwise/BatchNorm/beta"
  attr {
    key: "_class"
    value {
      list {
        s: "loc:@module/MobilenetV2/expanded_conv_1/depthwise/BatchNorm/beta"
      }
    }
  }
  attr {
    key: "dtype"
    value {
      type: DT_FLOAT
    }
  }
}
node {
  name: "module/MobilenetV2/expanded_conv_1/depthwise/BatchNorm/moving_mean/Initializer/zeros"
  op: "Const"
  attr {
    key: "_class"
    value {
      list {
        s: "loc:@module/MobilenetV2/expanded_conv_1/depthwise/BatchNorm/moving_mean"
      }
    }
  }
  attr {
    key: "dtype"
    value {
      type: DT_FLOAT
    }
  }
  attr {
    key: "value"
    value {
      tensor {
        dtype: DT_FLOAT
        tensor_shape {
          dim {
            size: 48
          }
        }
        float_val: 0.0
      }
    }
  }
}
node {
  name: "module/MobilenetV2/expanded_conv_1/depthwise/BatchNorm/moving_mean"
  op: "VarHandleOp"
  attr {
    key: "_class"
    value {
      list {
        s: "loc:@module/MobilenetV2/expanded_conv_1/depthwise/BatchNorm/moving_mean"
      }
    }
  }
  attr {
    key: "container"
    value {
      s: ""
    }
  }
  attr {
    key: "dtype"
    value {
      type: DT_FLOAT
    }
  }
  attr {
    key: "shape"
    value {
      shape {
        dim {
          size: 48
        }
      }
    }
  }
  attr {
    key: "shared_name"
    value {
      s: "module/MobilenetV2/expanded_conv_1/depthwise/BatchNorm/moving_mean"
    }
  }
}
node {
  name: "module/MobilenetV2/expanded_conv_1/depthwise/BatchNorm/moving_mean/IsInitialized/VarIsInitializedOp"
  op: "VarIsInitializedOp"
  input: "module/MobilenetV2/expanded_conv_1/depthwise/BatchNorm/moving_mean"
}
node {
  name: "module/MobilenetV2/expanded_conv_1/depthwise/BatchNorm/moving_mean/Assign"
  op: "AssignVariableOp"
  input: "module/MobilenetV2/expanded_conv_1/depthwise/BatchNorm/moving_mean"
  input: "module/MobilenetV2/expanded_conv_1/depthwise/BatchNorm/moving_mean/Initializer/zeros"
  attr {
    key: "_class"
    value {
      list {
        s: "loc:@module/MobilenetV2/expanded_conv_1/depthwise/BatchNorm/moving_mean"
      }
    }
  }
  attr {
    key: "dtype"
    value {
      type: DT_FLOAT
    }
  }
}
node {
  name: "module/MobilenetV2/expanded_conv_1/depthwise/BatchNorm/moving_mean/Read/ReadVariableOp"
  op: "ReadVariableOp"
  input: "module/MobilenetV2/expanded_conv_1/depthwise/BatchNorm/moving_mean"
  attr {
    key: "_class"
    value {
      list {
        s: "loc:@module/MobilenetV2/expanded_conv_1/depthwise/BatchNorm/moving_mean"
      }
    }
  }
  attr {
    key: "dtype"
    value {
      type: DT_FLOAT
    }
  }
}
node {
  name: "module/MobilenetV2/expanded_conv_1/depthwise/BatchNorm/moving_variance/Initializer/ones"
  op: "Const"
  attr {
    key: "_class"
    value {
      list {
        s: "loc:@module/MobilenetV2/expanded_conv_1/depthwise/BatchNorm/moving_variance"
      }
    }
  }
  attr {
    key: "dtype"
    value {
      type: DT_FLOAT
    }
  }
  attr {
    key: "value"
    value {
      tensor {
        dtype: DT_FLOAT
        tensor_shape {
          dim {
            size: 48
          }
        }
        float_val: 1.0
      }
    }
  }
}
node {
  name: "module/MobilenetV2/expanded_conv_1/depthwise/BatchNorm/moving_variance"
  op: "VarHandleOp"
  attr {
    key: "_class"
    value {
      list {
        s: "loc:@module/MobilenetV2/expanded_conv_1/depthwise/BatchNorm/moving_variance"
      }
    }
  }
  attr {
    key: "container"
    value {
      s: ""
    }
  }
  attr {
    key: "dtype"
    value {
      type: DT_FLOAT
    }
  }
  attr {
    key: "shape"
    value {
      shape {
        dim {
          size: 48
        }
      }
    }
  }
  attr {
    key: "shared_name"
    value {
      s: "module/MobilenetV2/expanded_conv_1/depthwise/BatchNorm/moving_variance"
    }
  }
}
node {
  name: "module/MobilenetV2/expanded_conv_1/depthwise/BatchNorm/moving_variance/IsInitialized/VarIsInitializedOp"
  op: "VarIsInitializedOp"
  input: "module/MobilenetV2/expanded_conv_1/depthwise/BatchNorm/moving_variance"
}
node {
  name: "module/MobilenetV2/expanded_conv_1/depthwise/BatchNorm/moving_variance/Assign"
  op: "AssignVariableOp"
  input: "module/MobilenetV2/expanded_conv_1/depthwise/BatchNorm/moving_variance"
  input: "module/MobilenetV2/expanded_conv_1/depthwise/BatchNorm/moving_variance/Initializer/ones"
  attr {
    key: "_class"
    value {
      list {
        s: "loc:@module/MobilenetV2/expanded_conv_1/depthwise/BatchNorm/moving_variance"
      }
    }
  }
  attr {
    key: "dtype"
    value {
      type: DT_FLOAT
    }
  }
}
node {
  name: "module/MobilenetV2/expanded_conv_1/depthwise/BatchNorm/moving_variance/Read/ReadVariableOp"
  op: "ReadVariableOp"
  input: "module/MobilenetV2/expanded_conv_1/depthwise/BatchNorm/moving_variance"
  attr {
    key: "_class"
    value {
      list {
        s: "loc:@module/MobilenetV2/expanded_conv_1/depthwise/BatchNorm/moving_variance"
      }
    }
  }
  attr {
    key: "dtype"
    value {
      type: DT_FLOAT
    }
  }
}
node {
  name: "module/MobilenetV2/expanded_conv_1/depthwise/BatchNorm/ReadVariableOp"
  op: "ReadVariableOp"
  input: "module/MobilenetV2/expanded_conv_1/depthwise/BatchNorm/gamma"
  attr {
    key: "dtype"
    value {
      type: DT_FLOAT
    }
  }
}
node {
  name: "module/MobilenetV2/expanded_conv_1/depthwise/BatchNorm/ReadVariableOp_1"
  op: "ReadVariableOp"
  input: "module/MobilenetV2/expanded_conv_1/depthwise/BatchNorm/beta"
  attr {
    key: "dtype"
    value {
      type: DT_FLOAT
    }
  }
}
node {
  name: "module/MobilenetV2/expanded_conv_1/depthwise/BatchNorm/FusedBatchNorm/ReadVariableOp"
  op: "ReadVariableOp"
  input: "module/MobilenetV2/expanded_conv_1/depthwise/BatchNorm/moving_mean"
  attr {
    key: "dtype"
    value {
      type: DT_FLOAT
    }
  }
}
node {
  name: "module/MobilenetV2/expanded_conv_1/depthwise/BatchNorm/FusedBatchNorm/ReadVariableOp_1"
  op: "ReadVariableOp"
  input: "module/MobilenetV2/expanded_conv_1/depthwise/BatchNorm/moving_variance"
  attr {
    key: "dtype"
    value {
      type: DT_FLOAT
    }
  }
}
node {
  name: "module/MobilenetV2/expanded_conv_1/depthwise/BatchNorm/FusedBatchNorm"
  op: "FusedBatchNorm"
  input: "module/MobilenetV2/expanded_conv_1/depthwise/depthwise"
  input: "module/MobilenetV2/expanded_conv_1/depthwise/BatchNorm/ReadVariableOp"
  input: "module/MobilenetV2/expanded_conv_1/depthwise/BatchNorm/ReadVariableOp_1"
  input: "module/MobilenetV2/expanded_conv_1/depthwise/BatchNorm/FusedBatchNorm/ReadVariableOp"
  input: "module/MobilenetV2/expanded_conv_1/depthwise/BatchNorm/FusedBatchNorm/ReadVariableOp_1"
  attr {
    key: "T"
    value {
      type: DT_FLOAT
    }
  }
  attr {
    key: "data_format"
    value {
      s: "NHWC"
    }
  }
  attr {
    key: "epsilon"
    value {
      f: 0.0010000000474974513
    }
  }
  attr {
    key: "is_training"
    value {
      b: false
    }
  }
}
node {
  name: "module/MobilenetV2/expanded_conv_1/depthwise/BatchNorm/Const"
  op: "Const"
  attr {
    key: "dtype"
    value {
      type: DT_FLOAT
    }
  }
  attr {
    key: "value"
    value {
      tensor {
        dtype: DT_FLOAT
        tensor_shape {
        }
        float_val: 0.996999979019165
      }
    }
  }
}
node {
  name: "module/MobilenetV2/expanded_conv_1/depthwise/Relu6"
  op: "Relu6"
  input: "module/MobilenetV2/expanded_conv_1/depthwise/BatchNorm/FusedBatchNorm"
  attr {
    key: "T"
    value {
      type: DT_FLOAT
    }
  }
}
node {
  name: "module/MobilenetV2/expanded_conv_1/depthwise_output"
  op: "Identity"
  input: "module/MobilenetV2/expanded_conv_1/depthwise/Relu6"
  attr {
    key: "T"
    value {
      type: DT_FLOAT
    }
  }
}
node {
  name: "module/MobilenetV2/expanded_conv_1/project/weights/Initializer/truncated_normal/shape"
  op: "Const"
  attr {
    key: "_class"
    value {
      list {
        s: "loc:@module/MobilenetV2/expanded_conv_1/project/weights"
      }
    }
  }
  attr {
    key: "dtype"
    value {
      type: DT_INT32
    }
  }
  attr {
    key: "value"
    value {
      tensor {
        dtype: DT_INT32
        tensor_shape {
          dim {
            size: 4
          }
        }
        tensor_content: "\001\000\000\000\001\000\000\0000\000\000\000\010\000\000\000"
      }
    }
  }
}
node {
  name: "module/MobilenetV2/expanded_conv_1/project/weights/Initializer/truncated_normal/mean"
  op: "Const"
  attr {
    key: "_class"
    value {
      list {
        s: "loc:@module/MobilenetV2/expanded_conv_1/project/weights"
      }
    }
  }
  attr {
    key: "dtype"
    value {
      type: DT_FLOAT
    }
  }
  attr {
    key: "value"
    value {
      tensor {
        dtype: DT_FLOAT
        tensor_shape {
        }
        float_val: 0.0
      }
    }
  }
}
node {
  name: "module/MobilenetV2/expanded_conv_1/project/weights/Initializer/truncated_normal/stddev"
  op: "Const"
  attr {
    key: "_class"
    value {
      list {
        s: "loc:@module/MobilenetV2/expanded_conv_1/project/weights"
      }
    }
  }
  attr {
    key: "dtype"
    value {
      type: DT_FLOAT
    }
  }
  attr {
    key: "value"
    value {
      tensor {
        dtype: DT_FLOAT
        tensor_shape {
        }
        float_val: 0.09000000357627869
      }
    }
  }
}
node {
  name: "module/MobilenetV2/expanded_conv_1/project/weights/Initializer/truncated_normal/TruncatedNormal"
  op: "TruncatedNormal"
  input: "module/MobilenetV2/expanded_conv_1/project/weights/Initializer/truncated_normal/shape"
  attr {
    key: "T"
    value {
      type: DT_INT32
    }
  }
  attr {
    key: "_class"
    value {
      list {
        s: "loc:@module/MobilenetV2/expanded_conv_1/project/weights"
      }
    }
  }
  attr {
    key: "dtype"
    value {
      type: DT_FLOAT
    }
  }
  attr {
    key: "seed"
    value {
      i: 0
    }
  }
  attr {
    key: "seed2"
    value {
      i: 0
    }
  }
}
node {
  name: "module/MobilenetV2/expanded_conv_1/project/weights/Initializer/truncated_normal/mul"
  op: "Mul"
  input: "module/MobilenetV2/expanded_conv_1/project/weights/Initializer/truncated_normal/TruncatedNormal"
  input: "module/MobilenetV2/expanded_conv_1/project/weights/Initializer/truncated_normal/stddev"
  attr {
    key: "T"
    value {
      type: DT_FLOAT
    }
  }
  attr {
    key: "_class"
    value {
      list {
        s: "loc:@module/MobilenetV2/expanded_conv_1/project/weights"
      }
    }
  }
}
node {
  name: "module/MobilenetV2/expanded_conv_1/project/weights/Initializer/truncated_normal"
  op: "Add"
  input: "module/MobilenetV2/expanded_conv_1/project/weights/Initializer/truncated_normal/mul"
  input: "module/MobilenetV2/expanded_conv_1/project/weights/Initializer/truncated_normal/mean"
  attr {
    key: "T"
    value {
      type: DT_FLOAT
    }
  }
  attr {
    key: "_class"
    value {
      list {
        s: "loc:@module/MobilenetV2/expanded_conv_1/project/weights"
      }
    }
  }
}
node {
  name: "module/MobilenetV2/expanded_conv_1/project/weights"
  op: "VarHandleOp"
  attr {
    key: "_class"
    value {
      list {
        s: "loc:@module/MobilenetV2/expanded_conv_1/project/weights"
      }
    }
  }
  attr {
    key: "container"
    value {
      s: ""
    }
  }
  attr {
    key: "dtype"
    value {
      type: DT_FLOAT
    }
  }
  attr {
    key: "shape"
    value {
      shape {
        dim {
          size: 1
        }
        dim {
          size: 1
        }
        dim {
          size: 48
        }
        dim {
          size: 8
        }
      }
    }
  }
  attr {
    key: "shared_name"
    value {
      s: "module/MobilenetV2/expanded_conv_1/project/weights"
    }
  }
}
node {
  name: "module/MobilenetV2/expanded_conv_1/project/weights/IsInitialized/VarIsInitializedOp"
  op: "VarIsInitializedOp"
  input: "module/MobilenetV2/expanded_conv_1/project/weights"
}
node {
  name: "module/MobilenetV2/expanded_conv_1/project/weights/Assign"
  op: "AssignVariableOp"
  input: "module/MobilenetV2/expanded_conv_1/project/weights"
  input: "module/MobilenetV2/expanded_conv_1/project/weights/Initializer/truncated_normal"
  attr {
    key: "_class"
    value {
      list {
        s: "loc:@module/MobilenetV2/expanded_conv_1/project/weights"
      }
    }
  }
  attr {
    key: "dtype"
    value {
      type: DT_FLOAT
    }
  }
}
node {
  name: "module/MobilenetV2/expanded_conv_1/project/weights/Read/ReadVariableOp"
  op: "ReadVariableOp"
  input: "module/MobilenetV2/expanded_conv_1/project/weights"
  attr {
    key: "_class"
    value {
      list {
        s: "loc:@module/MobilenetV2/expanded_conv_1/project/weights"
      }
    }
  }
  attr {
    key: "dtype"
    value {
      type: DT_FLOAT
    }
  }
}
node {
  name: "module/MobilenetV2/expanded_conv_1/project/kernel/Regularizer/l2_regularizer/scale"
  op: "Const"
  attr {
    key: "_class"
    value {
      list {
        s: "loc:@module/MobilenetV2/expanded_conv_1/project/weights"
      }
    }
  }
  attr {
    key: "dtype"
    value {
      type: DT_FLOAT
    }
  }
  attr {
    key: "value"
    value {
      tensor {
        dtype: DT_FLOAT
        tensor_shape {
        }
        float_val: 3.9999998989515007e-05
      }
    }
  }
}
node {
  name: "module/MobilenetV2/expanded_conv_1/project/kernel/Regularizer/l2_regularizer/L2Loss/ReadVariableOp"
  op: "ReadVariableOp"
  input: "module/MobilenetV2/expanded_conv_1/project/weights"
  attr {
    key: "dtype"
    value {
      type: DT_FLOAT
    }
  }
}
node {
  name: "module/MobilenetV2/expanded_conv_1/project/kernel/Regularizer/l2_regularizer/L2Loss"
  op: "L2Loss"
  input: "module/MobilenetV2/expanded_conv_1/project/kernel/Regularizer/l2_regularizer/L2Loss/ReadVariableOp"
  attr {
    key: "T"
    value {
      type: DT_FLOAT
    }
  }
  attr {
    key: "_class"
    value {
      list {
        s: "loc:@module/MobilenetV2/expanded_conv_1/project/weights"
      }
    }
  }
}
node {
  name: "module/MobilenetV2/expanded_conv_1/project/kernel/Regularizer/l2_regularizer"
  op: "Mul"
  input: "module/MobilenetV2/expanded_conv_1/project/kernel/Regularizer/l2_regularizer/scale"
  input: "module/MobilenetV2/expanded_conv_1/project/kernel/Regularizer/l2_regularizer/L2Loss"
  attr {
    key: "T"
    value {
      type: DT_FLOAT
    }
  }
  attr {
    key: "_class"
    value {
      list {
        s: "loc:@module/MobilenetV2/expanded_conv_1/project/weights"
      }
    }
  }
}
node {
  name: "module/MobilenetV2/expanded_conv_1/project/dilation_rate"
  op: "Const"
  attr {
    key: "dtype"
    value {
      type: DT_INT32
    }
  }
  attr {
    key: "value"
    value {
      tensor {
        dtype: DT_INT32
        tensor_shape {
          dim {
            size: 2
          }
        }
        tensor_content: "\001\000\000\000\001\000\000\000"
      }
    }
  }
}
node {
  name: "module/MobilenetV2/expanded_conv_1/project/Conv2D/ReadVariableOp"
  op: "ReadVariableOp"
  input: "module/MobilenetV2/expanded_conv_1/project/weights"
  attr {
    key: "dtype"
    value {
      type: DT_FLOAT
    }
  }
}
node {
  name: "module/MobilenetV2/expanded_conv_1/project/Conv2D"
  op: "Conv2D"
  input: "module/MobilenetV2/expanded_conv_1/depthwise_output"
  input: "module/MobilenetV2/expanded_conv_1/project/Conv2D/ReadVariableOp"
  attr {
    key: "T"
    value {
      type: DT_FLOAT
    }
  }
  attr {
    key: "data_format"
    value {
      s: "NHWC"
    }
  }
  attr {
    key: "dilations"
    value {
      list {
        i: 1
        i: 1
        i: 1
        i: 1
      }
    }
  }
  attr {
    key: "explicit_paddings"
    value {
      list {
      }
    }
  }
  attr {
    key: "padding"
    value {
      s: "SAME"
    }
  }
  attr {
    key: "strides"
    value {
      list {
        i: 1
        i: 1
        i: 1
        i: 1
      }
    }
  }
  attr {
    key: "use_cudnn_on_gpu"
    value {
      b: true
    }
  }
}
node {
  name: "module/MobilenetV2/expanded_conv_1/project/BatchNorm/gamma/Initializer/ones"
  op: "Const"
  attr {
    key: "_class"
    value {
      list {
        s: "loc:@module/MobilenetV2/expanded_conv_1/project/BatchNorm/gamma"
      }
    }
  }
  attr {
    key: "dtype"
    value {
      type: DT_FLOAT
    }
  }
  attr {
    key: "value"
    value {
      tensor {
        dtype: DT_FLOAT
        tensor_shape {
          dim {
            size: 8
          }
        }
        float_val: 1.0
      }
    }
  }
}
node {
  name: "module/MobilenetV2/expanded_conv_1/project/BatchNorm/gamma"
  op: "VarHandleOp"
  attr {
    key: "_class"
    value {
      list {
        s: "loc:@module/MobilenetV2/expanded_conv_1/project/BatchNorm/gamma"
      }
    }
  }
  attr {
    key: "container"
    value {
      s: ""
    }
  }
  attr {
    key: "dtype"
    value {
      type: DT_FLOAT
    }
  }
  attr {
    key: "shape"
    value {
      shape {
        dim {
          size: 8
        }
      }
    }
  }
  attr {
    key: "shared_name"
    value {
      s: "module/MobilenetV2/expanded_conv_1/project/BatchNorm/gamma"
    }
  }
}
node {
  name: "module/MobilenetV2/expanded_conv_1/project/BatchNorm/gamma/IsInitialized/VarIsInitializedOp"
  op: "VarIsInitializedOp"
  input: "module/MobilenetV2/expanded_conv_1/project/BatchNorm/gamma"
}
node {
  name: "module/MobilenetV2/expanded_conv_1/project/BatchNorm/gamma/Assign"
  op: "AssignVariableOp"
  input: "module/MobilenetV2/expanded_conv_1/project/BatchNorm/gamma"
  input: "module/MobilenetV2/expanded_conv_1/project/BatchNorm/gamma/Initializer/ones"
  attr {
    key: "_class"
    value {
      list {
        s: "loc:@module/MobilenetV2/expanded_conv_1/project/BatchNorm/gamma"
      }
    }
  }
  attr {
    key: "dtype"
    value {
      type: DT_FLOAT
    }
  }
}
node {
  name: "module/MobilenetV2/expanded_conv_1/project/BatchNorm/gamma/Read/ReadVariableOp"
  op: "ReadVariableOp"
  input: "module/MobilenetV2/expanded_conv_1/project/BatchNorm/gamma"
  attr {
    key: "_class"
    value {
      list {
        s: "loc:@module/MobilenetV2/expanded_conv_1/project/BatchNorm/gamma"
      }
    }
  }
  attr {
    key: "dtype"
    value {
      type: DT_FLOAT
    }
  }
}
node {
  name: "module/MobilenetV2/expanded_conv_1/project/BatchNorm/beta/Initializer/zeros"
  op: "Const"
  attr {
    key: "_class"
    value {
      list {
        s: "loc:@module/MobilenetV2/expanded_conv_1/project/BatchNorm/beta"
      }
    }
  }
  attr {
    key: "dtype"
    value {
      type: DT_FLOAT
    }
  }
  attr {
    key: "value"
    value {
      tensor {
        dtype: DT_FLOAT
        tensor_shape {
          dim {
            size: 8
          }
        }
        float_val: 0.0
      }
    }
  }
}
node {
  name: "module/MobilenetV2/expanded_conv_1/project/BatchNorm/beta"
  op: "VarHandleOp"
  attr {
    key: "_class"
    value {
      list {
        s: "loc:@module/MobilenetV2/expanded_conv_1/project/BatchNorm/beta"
      }
    }
  }
  attr {
    key: "container"
    value {
      s: ""
    }
  }
  attr {
    key: "dtype"
    value {
      type: DT_FLOAT
    }
  }
  attr {
    key: "shape"
    value {
      shape {
        dim {
          size: 8
        }
      }
    }
  }
  attr {
    key: "shared_name"
    value {
      s: "module/MobilenetV2/expanded_conv_1/project/BatchNorm/beta"
    }
  }
}
node {
  name: "module/MobilenetV2/expanded_conv_1/project/BatchNorm/beta/IsInitialized/VarIsInitializedOp"
  op: "VarIsInitializedOp"
  input: "module/MobilenetV2/expanded_conv_1/project/BatchNorm/beta"
}
node {
  name: "module/MobilenetV2/expanded_conv_1/project/BatchNorm/beta/Assign"
  op: "AssignVariableOp"
  input: "module/MobilenetV2/expanded_conv_1/project/BatchNorm/beta"
  input: "module/MobilenetV2/expanded_conv_1/project/BatchNorm/beta/Initializer/zeros"
  attr {
    key: "_class"
    value {
      list {
        s: "loc:@module/MobilenetV2/expanded_conv_1/project/BatchNorm/beta"
      }
    }
  }
  attr {
    key: "dtype"
    value {
      type: DT_FLOAT
    }
  }
}
node {
  name: "module/MobilenetV2/expanded_conv_1/project/BatchNorm/beta/Read/ReadVariableOp"
  op: "ReadVariableOp"
  input: "module/MobilenetV2/expanded_conv_1/project/BatchNorm/beta"
  attr {
    key: "_class"
    value {
      list {
        s: "loc:@module/MobilenetV2/expanded_conv_1/project/BatchNorm/beta"
      }
    }
  }
  attr {
    key: "dtype"
    value {
      type: DT_FLOAT
    }
  }
}
node {
  name: "module/MobilenetV2/expanded_conv_1/project/BatchNorm/moving_mean/Initializer/zeros"
  op: "Const"
  attr {
    key: "_class"
    value {
      list {
        s: "loc:@module/MobilenetV2/expanded_conv_1/project/BatchNorm/moving_mean"
      }
    }
  }
  attr {
    key: "dtype"
    value {
      type: DT_FLOAT
    }
  }
  attr {
    key: "value"
    value {
      tensor {
        dtype: DT_FLOAT
        tensor_shape {
          dim {
            size: 8
          }
        }
        float_val: 0.0
      }
    }
  }
}
node {
  name: "module/MobilenetV2/expanded_conv_1/project/BatchNorm/moving_mean"
  op: "VarHandleOp"
  attr {
    key: "_class"
    value {
      list {
        s: "loc:@module/MobilenetV2/expanded_conv_1/project/BatchNorm/moving_mean"
      }
    }
  }
  attr {
    key: "container"
    value {
      s: ""
    }
  }
  attr {
    key: "dtype"
    value {
      type: DT_FLOAT
    }
  }
  attr {
    key: "shape"
    value {
      shape {
        dim {
          size: 8
        }
      }
    }
  }
  attr {
    key: "shared_name"
    value {
      s: "module/MobilenetV2/expanded_conv_1/project/BatchNorm/moving_mean"
    }
  }
}
node {
  name: "module/MobilenetV2/expanded_conv_1/project/BatchNorm/moving_mean/IsInitialized/VarIsInitializedOp"
  op: "VarIsInitializedOp"
  input: "module/MobilenetV2/expanded_conv_1/project/BatchNorm/moving_mean"
}
node {
  name: "module/MobilenetV2/expanded_conv_1/project/BatchNorm/moving_mean/Assign"
  op: "AssignVariableOp"
  input: "module/MobilenetV2/expanded_conv_1/project/BatchNorm/moving_mean"
  input: "module/MobilenetV2/expanded_conv_1/project/BatchNorm/moving_mean/Initializer/zeros"
  attr {
    key: "_class"
    value {
      list {
        s: "loc:@module/MobilenetV2/expanded_conv_1/project/BatchNorm/moving_mean"
      }
    }
  }
  attr {
    key: "dtype"
    value {
      type: DT_FLOAT
    }
  }
}
node {
  name: "module/MobilenetV2/expanded_conv_1/project/BatchNorm/moving_mean/Read/ReadVariableOp"
  op: "ReadVariableOp"
  input: "module/MobilenetV2/expanded_conv_1/project/BatchNorm/moving_mean"
  attr {
    key: "_class"
    value {
      list {
        s: "loc:@module/MobilenetV2/expanded_conv_1/project/BatchNorm/moving_mean"
      }
    }
  }
  attr {
    key: "dtype"
    value {
      type: DT_FLOAT
    }
  }
}
node {
  name: "module/MobilenetV2/expanded_conv_1/project/BatchNorm/moving_variance/Initializer/ones"
  op: "Const"
  attr {
    key: "_class"
    value {
      list {
        s: "loc:@module/MobilenetV2/expanded_conv_1/project/BatchNorm/moving_variance"
      }
    }
  }
  attr {
    key: "dtype"
    value {
      type: DT_FLOAT
    }
  }
  attr {
    key: "value"
    value {
      tensor {
        dtype: DT_FLOAT
        tensor_shape {
          dim {
            size: 8
          }
        }
        float_val: 1.0
      }
    }
  }
}
node {
  name: "module/MobilenetV2/expanded_conv_1/project/BatchNorm/moving_variance"
  op: "VarHandleOp"
  attr {
    key: "_class"
    value {
      list {
        s: "loc:@module/MobilenetV2/expanded_conv_1/project/BatchNorm/moving_variance"
      }
    }
  }
  attr {
    key: "container"
    value {
      s: ""
    }
  }
  attr {
    key: "dtype"
    value {
      type: DT_FLOAT
    }
  }
  attr {
    key: "shape"
    value {
      shape {
        dim {
          size: 8
        }
      }
    }
  }
  attr {
    key: "shared_name"
    value {
      s: "module/MobilenetV2/expanded_conv_1/project/BatchNorm/moving_variance"
    }
  }
}
node {
  name: "module/MobilenetV2/expanded_conv_1/project/BatchNorm/moving_variance/IsInitialized/VarIsInitializedOp"
  op: "VarIsInitializedOp"
  input: "module/MobilenetV2/expanded_conv_1/project/BatchNorm/moving_variance"
}
node {
  name: "module/MobilenetV2/expanded_conv_1/project/BatchNorm/moving_variance/Assign"
  op: "AssignVariableOp"
  input: "module/MobilenetV2/expanded_conv_1/project/BatchNorm/moving_variance"
  input: "module/MobilenetV2/expanded_conv_1/project/BatchNorm/moving_variance/Initializer/ones"
  attr {
    key: "_class"
    value {
      list {
        s: "loc:@module/MobilenetV2/expanded_conv_1/project/BatchNorm/moving_variance"
      }
    }
  }
  attr {
    key: "dtype"
    value {
      type: DT_FLOAT
    }
  }
}
node {
  name: "module/MobilenetV2/expanded_conv_1/project/BatchNorm/moving_variance/Read/ReadVariableOp"
  op: "ReadVariableOp"
  input: "module/MobilenetV2/expanded_conv_1/project/BatchNorm/moving_variance"
  attr {
    key: "_class"
    value {
      list {
        s: "loc:@module/MobilenetV2/expanded_conv_1/project/BatchNorm/moving_variance"
      }
    }
  }
  attr {
    key: "dtype"
    value {
      type: DT_FLOAT
    }
  }
}
node {
  name: "module/MobilenetV2/expanded_conv_1/project/BatchNorm/ReadVariableOp"
  op: "ReadVariableOp"
  input: "module/MobilenetV2/expanded_conv_1/project/BatchNorm/gamma"
  attr {
    key: "dtype"
    value {
      type: DT_FLOAT
    }
  }
}
node {
  name: "module/MobilenetV2/expanded_conv_1/project/BatchNorm/ReadVariableOp_1"
  op: "ReadVariableOp"
  input: "module/MobilenetV2/expanded_conv_1/project/BatchNorm/beta"
  attr {
    key: "dtype"
    value {
      type: DT_FLOAT
    }
  }
}
node {
  name: "module/MobilenetV2/expanded_conv_1/project/BatchNorm/FusedBatchNorm/ReadVariableOp"
  op: "ReadVariableOp"
  input: "module/MobilenetV2/expanded_conv_1/project/BatchNorm/moving_mean"
  attr {
    key: "dtype"
    value {
      type: DT_FLOAT
    }
  }
}
node {
  name: "module/MobilenetV2/expanded_conv_1/project/BatchNorm/FusedBatchNorm/ReadVariableOp_1"
  op: "ReadVariableOp"
  input: "module/MobilenetV2/expanded_conv_1/project/BatchNorm/moving_variance"
  attr {
    key: "dtype"
    value {
      type: DT_FLOAT
    }
  }
}
node {
  name: "module/MobilenetV2/expanded_conv_1/project/BatchNorm/FusedBatchNorm"
  op: "FusedBatchNorm"
  input: "module/MobilenetV2/expanded_conv_1/project/Conv2D"
  input: "module/MobilenetV2/expanded_conv_1/project/BatchNorm/ReadVariableOp"
  input: "module/MobilenetV2/expanded_conv_1/project/BatchNorm/ReadVariableOp_1"
  input: "module/MobilenetV2/expanded_conv_1/project/BatchNorm/FusedBatchNorm/ReadVariableOp"
  input: "module/MobilenetV2/expanded_conv_1/project/BatchNorm/FusedBatchNorm/ReadVariableOp_1"
  attr {
    key: "T"
    value {
      type: DT_FLOAT
    }
  }
  attr {
    key: "data_format"
    value {
      s: "NHWC"
    }
  }
  attr {
    key: "epsilon"
    value {
      f: 0.0010000000474974513
    }
  }
  attr {
    key: "is_training"
    value {
      b: false
    }
  }
}
node {
  name: "module/MobilenetV2/expanded_conv_1/project/BatchNorm/Const"
  op: "Const"
  attr {
    key: "dtype"
    value {
      type: DT_FLOAT
    }
  }
  attr {
    key: "value"
    value {
      tensor {
        dtype: DT_FLOAT
        tensor_shape {
        }
        float_val: 0.996999979019165
      }
    }
  }
}
node {
  name: "module/MobilenetV2/expanded_conv_1/project/Identity"
  op: "Identity"
  input: "module/MobilenetV2/expanded_conv_1/project/BatchNorm/FusedBatchNorm"
  attr {
    key: "T"
    value {
      type: DT_FLOAT
    }
  }
}
node {
  name: "module/MobilenetV2/expanded_conv_1/output"
  op: "Identity"
  input: "module/MobilenetV2/expanded_conv_1/project/Identity"
  attr {
    key: "T"
    value {
      type: DT_FLOAT
    }
  }
}
node {
  name: "module/MobilenetV2/expanded_conv_2/input"
  op: "Identity"
  input: "module/MobilenetV2/expanded_conv_1/output"
  attr {
    key: "T"
    value {
      type: DT_FLOAT
    }
  }
}
node {
  name: "module/MobilenetV2/expanded_conv_2/expand/weights/Initializer/truncated_normal/shape"
  op: "Const"
  attr {
    key: "_class"
    value {
      list {
        s: "loc:@module/MobilenetV2/expanded_conv_2/expand/weights"
      }
    }
  }
  attr {
    key: "dtype"
    value {
      type: DT_INT32
    }
  }
  attr {
    key: "value"
    value {
      tensor {
        dtype: DT_INT32
        tensor_shape {
          dim {
            size: 4
          }
        }
        tensor_content: "\001\000\000\000\001\000\000\000\010\000\000\0000\000\000\000"
      }
    }
  }
}
node {
  name: "module/MobilenetV2/expanded_conv_2/expand/weights/Initializer/truncated_normal/mean"
  op: "Const"
  attr {
    key: "_class"
    value {
      list {
        s: "loc:@module/MobilenetV2/expanded_conv_2/expand/weights"
      }
    }
  }
  attr {
    key: "dtype"
    value {
      type: DT_FLOAT
    }
  }
  attr {
    key: "value"
    value {
      tensor {
        dtype: DT_FLOAT
        tensor_shape {
        }
        float_val: 0.0
      }
    }
  }
}
node {
  name: "module/MobilenetV2/expanded_conv_2/expand/weights/Initializer/truncated_normal/stddev"
  op: "Const"
  attr {
    key: "_class"
    value {
      list {
        s: "loc:@module/MobilenetV2/expanded_conv_2/expand/weights"
      }
    }
  }
  attr {
    key: "dtype"
    value {
      type: DT_FLOAT
    }
  }
  attr {
    key: "value"
    value {
      tensor {
        dtype: DT_FLOAT
        tensor_shape {
        }
        float_val: 0.09000000357627869
      }
    }
  }
}
node {
  name: "module/MobilenetV2/expanded_conv_2/expand/weights/Initializer/truncated_normal/TruncatedNormal"
  op: "TruncatedNormal"
  input: "module/MobilenetV2/expanded_conv_2/expand/weights/Initializer/truncated_normal/shape"
  attr {
    key: "T"
    value {
      type: DT_INT32
    }
  }
  attr {
    key: "_class"
    value {
      list {
        s: "loc:@module/MobilenetV2/expanded_conv_2/expand/weights"
      }
    }
  }
  attr {
    key: "dtype"
    value {
      type: DT_FLOAT
    }
  }
  attr {
    key: "seed"
    value {
      i: 0
    }
  }
  attr {
    key: "seed2"
    value {
      i: 0
    }
  }
}
node {
  name: "module/MobilenetV2/expanded_conv_2/expand/weights/Initializer/truncated_normal/mul"
  op: "Mul"
  input: "module/MobilenetV2/expanded_conv_2/expand/weights/Initializer/truncated_normal/TruncatedNormal"
  input: "module/MobilenetV2/expanded_conv_2/expand/weights/Initializer/truncated_normal/stddev"
  attr {
    key: "T"
    value {
      type: DT_FLOAT
    }
  }
  attr {
    key: "_class"
    value {
      list {
        s: "loc:@module/MobilenetV2/expanded_conv_2/expand/weights"
      }
    }
  }
}
node {
  name: "module/MobilenetV2/expanded_conv_2/expand/weights/Initializer/truncated_normal"
  op: "Add"
  input: "module/MobilenetV2/expanded_conv_2/expand/weights/Initializer/truncated_normal/mul"
  input: "module/MobilenetV2/expanded_conv_2/expand/weights/Initializer/truncated_normal/mean"
  attr {
    key: "T"
    value {
      type: DT_FLOAT
    }
  }
  attr {
    key: "_class"
    value {
      list {
        s: "loc:@module/MobilenetV2/expanded_conv_2/expand/weights"
      }
    }
  }
}
node {
  name: "module/MobilenetV2/expanded_conv_2/expand/weights"
  op: "VarHandleOp"
  attr {
    key: "_class"
    value {
      list {
        s: "loc:@module/MobilenetV2/expanded_conv_2/expand/weights"
      }
    }
  }
  attr {
    key: "container"
    value {
      s: ""
    }
  }
  attr {
    key: "dtype"
    value {
      type: DT_FLOAT
    }
  }
  attr {
    key: "shape"
    value {
      shape {
        dim {
          size: 1
        }
        dim {
          size: 1
        }
        dim {
          size: 8
        }
        dim {
          size: 48
        }
      }
    }
  }
  attr {
    key: "shared_name"
    value {
      s: "module/MobilenetV2/expanded_conv_2/expand/weights"
    }
  }
}
node {
  name: "module/MobilenetV2/expanded_conv_2/expand/weights/IsInitialized/VarIsInitializedOp"
  op: "VarIsInitializedOp"
  input: "module/MobilenetV2/expanded_conv_2/expand/weights"
}
node {
  name: "module/MobilenetV2/expanded_conv_2/expand/weights/Assign"
  op: "AssignVariableOp"
  input: "module/MobilenetV2/expanded_conv_2/expand/weights"
  input: "module/MobilenetV2/expanded_conv_2/expand/weights/Initializer/truncated_normal"
  attr {
    key: "_class"
    value {
      list {
        s: "loc:@module/MobilenetV2/expanded_conv_2/expand/weights"
      }
    }
  }
  attr {
    key: "dtype"
    value {
      type: DT_FLOAT
    }
  }
}
node {
  name: "module/MobilenetV2/expanded_conv_2/expand/weights/Read/ReadVariableOp"
  op: "ReadVariableOp"
  input: "module/MobilenetV2/expanded_conv_2/expand/weights"
  attr {
    key: "_class"
    value {
      list {
        s: "loc:@module/MobilenetV2/expanded_conv_2/expand/weights"
      }
    }
  }
  attr {
    key: "dtype"
    value {
      type: DT_FLOAT
    }
  }
}
node {
  name: "module/MobilenetV2/expanded_conv_2/expand/kernel/Regularizer/l2_regularizer/scale"
  op: "Const"
  attr {
    key: "_class"
    value {
      list {
        s: "loc:@module/MobilenetV2/expanded_conv_2/expand/weights"
      }
    }
  }
  attr {
    key: "dtype"
    value {
      type: DT_FLOAT
    }
  }
  attr {
    key: "value"
    value {
      tensor {
        dtype: DT_FLOAT
        tensor_shape {
        }
        float_val: 3.9999998989515007e-05
      }
    }
  }
}
node {
  name: "module/MobilenetV2/expanded_conv_2/expand/kernel/Regularizer/l2_regularizer/L2Loss/ReadVariableOp"
  op: "ReadVariableOp"
  input: "module/MobilenetV2/expanded_conv_2/expand/weights"
  attr {
    key: "dtype"
    value {
      type: DT_FLOAT
    }
  }
}
node {
  name: "module/MobilenetV2/expanded_conv_2/expand/kernel/Regularizer/l2_regularizer/L2Loss"
  op: "L2Loss"
  input: "module/MobilenetV2/expanded_conv_2/expand/kernel/Regularizer/l2_regularizer/L2Loss/ReadVariableOp"
  attr {
    key: "T"
    value {
      type: DT_FLOAT
    }
  }
  attr {
    key: "_class"
    value {
      list {
        s: "loc:@module/MobilenetV2/expanded_conv_2/expand/weights"
      }
    }
  }
}
node {
  name: "module/MobilenetV2/expanded_conv_2/expand/kernel/Regularizer/l2_regularizer"
  op: "Mul"
  input: "module/MobilenetV2/expanded_conv_2/expand/kernel/Regularizer/l2_regularizer/scale"
  input: "module/MobilenetV2/expanded_conv_2/expand/kernel/Regularizer/l2_regularizer/L2Loss"
  attr {
    key: "T"
    value {
      type: DT_FLOAT
    }
  }
  attr {
    key: "_class"
    value {
      list {
        s: "loc:@module/MobilenetV2/expanded_conv_2/expand/weights"
      }
    }
  }
}
node {
  name: "module/MobilenetV2/expanded_conv_2/expand/dilation_rate"
  op: "Const"
  attr {
    key: "dtype"
    value {
      type: DT_INT32
    }
  }
  attr {
    key: "value"
    value {
      tensor {
        dtype: DT_INT32
        tensor_shape {
          dim {
            size: 2
          }
        }
        tensor_content: "\001\000\000\000\001\000\000\000"
      }
    }
  }
}
node {
  name: "module/MobilenetV2/expanded_conv_2/expand/Conv2D/ReadVariableOp"
  op: "ReadVariableOp"
  input: "module/MobilenetV2/expanded_conv_2/expand/weights"
  attr {
    key: "dtype"
    value {
      type: DT_FLOAT
    }
  }
}
node {
  name: "module/MobilenetV2/expanded_conv_2/expand/Conv2D"
  op: "Conv2D"
  input: "module/MobilenetV2/expanded_conv_2/input"
  input: "module/MobilenetV2/expanded_conv_2/expand/Conv2D/ReadVariableOp"
  attr {
    key: "T"
    value {
      type: DT_FLOAT
    }
  }
  attr {
    key: "data_format"
    value {
      s: "NHWC"
    }
  }
  attr {
    key: "dilations"
    value {
      list {
        i: 1
        i: 1
        i: 1
        i: 1
      }
    }
  }
  attr {
    key: "explicit_paddings"
    value {
      list {
      }
    }
  }
  attr {
    key: "padding"
    value {
      s: "SAME"
    }
  }
  attr {
    key: "strides"
    value {
      list {
        i: 1
        i: 1
        i: 1
        i: 1
      }
    }
  }
  attr {
    key: "use_cudnn_on_gpu"
    value {
      b: true
    }
  }
}
node {
  name: "module/MobilenetV2/expanded_conv_2/expand/BatchNorm/gamma/Initializer/ones"
  op: "Const"
  attr {
    key: "_class"
    value {
      list {
        s: "loc:@module/MobilenetV2/expanded_conv_2/expand/BatchNorm/gamma"
      }
    }
  }
  attr {
    key: "dtype"
    value {
      type: DT_FLOAT
    }
  }
  attr {
    key: "value"
    value {
      tensor {
        dtype: DT_FLOAT
        tensor_shape {
          dim {
            size: 48
          }
        }
        float_val: 1.0
      }
    }
  }
}
node {
  name: "module/MobilenetV2/expanded_conv_2/expand/BatchNorm/gamma"
  op: "VarHandleOp"
  attr {
    key: "_class"
    value {
      list {
        s: "loc:@module/MobilenetV2/expanded_conv_2/expand/BatchNorm/gamma"
      }
    }
  }
  attr {
    key: "container"
    value {
      s: ""
    }
  }
  attr {
    key: "dtype"
    value {
      type: DT_FLOAT
    }
  }
  attr {
    key: "shape"
    value {
      shape {
        dim {
          size: 48
        }
      }
    }
  }
  attr {
    key: "shared_name"
    value {
      s: "module/MobilenetV2/expanded_conv_2/expand/BatchNorm/gamma"
    }
  }
}
node {
  name: "module/MobilenetV2/expanded_conv_2/expand/BatchNorm/gamma/IsInitialized/VarIsInitializedOp"
  op: "VarIsInitializedOp"
  input: "module/MobilenetV2/expanded_conv_2/expand/BatchNorm/gamma"
}
node {
  name: "module/MobilenetV2/expanded_conv_2/expand/BatchNorm/gamma/Assign"
  op: "AssignVariableOp"
  input: "module/MobilenetV2/expanded_conv_2/expand/BatchNorm/gamma"
  input: "module/MobilenetV2/expanded_conv_2/expand/BatchNorm/gamma/Initializer/ones"
  attr {
    key: "_class"
    value {
      list {
        s: "loc:@module/MobilenetV2/expanded_conv_2/expand/BatchNorm/gamma"
      }
    }
  }
  attr {
    key: "dtype"
    value {
      type: DT_FLOAT
    }
  }
}
node {
  name: "module/MobilenetV2/expanded_conv_2/expand/BatchNorm/gamma/Read/ReadVariableOp"
  op: "ReadVariableOp"
  input: "module/MobilenetV2/expanded_conv_2/expand/BatchNorm/gamma"
  attr {
    key: "_class"
    value {
      list {
        s: "loc:@module/MobilenetV2/expanded_conv_2/expand/BatchNorm/gamma"
      }
    }
  }
  attr {
    key: "dtype"
    value {
      type: DT_FLOAT
    }
  }
}
node {
  name: "module/MobilenetV2/expanded_conv_2/expand/BatchNorm/beta/Initializer/zeros"
  op: "Const"
  attr {
    key: "_class"
    value {
      list {
        s: "loc:@module/MobilenetV2/expanded_conv_2/expand/BatchNorm/beta"
      }
    }
  }
  attr {
    key: "dtype"
    value {
      type: DT_FLOAT
    }
  }
  attr {
    key: "value"
    value {
      tensor {
        dtype: DT_FLOAT
        tensor_shape {
          dim {
            size: 48
          }
        }
        float_val: 0.0
      }
    }
  }
}
node {
  name: "module/MobilenetV2/expanded_conv_2/expand/BatchNorm/beta"
  op: "VarHandleOp"
  attr {
    key: "_class"
    value {
      list {
        s: "loc:@module/MobilenetV2/expanded_conv_2/expand/BatchNorm/beta"
      }
    }
  }
  attr {
    key: "container"
    value {
      s: ""
    }
  }
  attr {
    key: "dtype"
    value {
      type: DT_FLOAT
    }
  }
  attr {
    key: "shape"
    value {
      shape {
        dim {
          size: 48
        }
      }
    }
  }
  attr {
    key: "shared_name"
    value {
      s: "module/MobilenetV2/expanded_conv_2/expand/BatchNorm/beta"
    }
  }
}
node {
  name: "module/MobilenetV2/expanded_conv_2/expand/BatchNorm/beta/IsInitialized/VarIsInitializedOp"
  op: "VarIsInitializedOp"
  input: "module/MobilenetV2/expanded_conv_2/expand/BatchNorm/beta"
}
node {
  name: "module/MobilenetV2/expanded_conv_2/expand/BatchNorm/beta/Assign"
  op: "AssignVariableOp"
  input: "module/MobilenetV2/expanded_conv_2/expand/BatchNorm/beta"
  input: "module/MobilenetV2/expanded_conv_2/expand/BatchNorm/beta/Initializer/zeros"
  attr {
    key: "_class"
    value {
      list {
        s: "loc:@module/MobilenetV2/expanded_conv_2/expand/BatchNorm/beta"
      }
    }
  }
  attr {
    key: "dtype"
    value {
      type: DT_FLOAT
    }
  }
}
node {
  name: "module/MobilenetV2/expanded_conv_2/expand/BatchNorm/beta/Read/ReadVariableOp"
  op: "ReadVariableOp"
  input: "module/MobilenetV2/expanded_conv_2/expand/BatchNorm/beta"
  attr {
    key: "_class"
    value {
      list {
        s: "loc:@module/MobilenetV2/expanded_conv_2/expand/BatchNorm/beta"
      }
    }
  }
  attr {
    key: "dtype"
    value {
      type: DT_FLOAT
    }
  }
}
node {
  name: "module/MobilenetV2/expanded_conv_2/expand/BatchNorm/moving_mean/Initializer/zeros"
  op: "Const"
  attr {
    key: "_class"
    value {
      list {
        s: "loc:@module/MobilenetV2/expanded_conv_2/expand/BatchNorm/moving_mean"
      }
    }
  }
  attr {
    key: "dtype"
    value {
      type: DT_FLOAT
    }
  }
  attr {
    key: "value"
    value {
      tensor {
        dtype: DT_FLOAT
        tensor_shape {
          dim {
            size: 48
          }
        }
        float_val: 0.0
      }
    }
  }
}
node {
  name: "module/MobilenetV2/expanded_conv_2/expand/BatchNorm/moving_mean"
  op: "VarHandleOp"
  attr {
    key: "_class"
    value {
      list {
        s: "loc:@module/MobilenetV2/expanded_conv_2/expand/BatchNorm/moving_mean"
      }
    }
  }
  attr {
    key: "container"
    value {
      s: ""
    }
  }
  attr {
    key: "dtype"
    value {
      type: DT_FLOAT
    }
  }
  attr {
    key: "shape"
    value {
      shape {
        dim {
          size: 48
        }
      }
    }
  }
  attr {
    key: "shared_name"
    value {
      s: "module/MobilenetV2/expanded_conv_2/expand/BatchNorm/moving_mean"
    }
  }
}
node {
  name: "module/MobilenetV2/expanded_conv_2/expand/BatchNorm/moving_mean/IsInitialized/VarIsInitializedOp"
  op: "VarIsInitializedOp"
  input: "module/MobilenetV2/expanded_conv_2/expand/BatchNorm/moving_mean"
}
node {
  name: "module/MobilenetV2/expanded_conv_2/expand/BatchNorm/moving_mean/Assign"
  op: "AssignVariableOp"
  input: "module/MobilenetV2/expanded_conv_2/expand/BatchNorm/moving_mean"
  input: "module/MobilenetV2/expanded_conv_2/expand/BatchNorm/moving_mean/Initializer/zeros"
  attr {
    key: "_class"
    value {
      list {
        s: "loc:@module/MobilenetV2/expanded_conv_2/expand/BatchNorm/moving_mean"
      }
    }
  }
  attr {
    key: "dtype"
    value {
      type: DT_FLOAT
    }
  }
}
node {
  name: "module/MobilenetV2/expanded_conv_2/expand/BatchNorm/moving_mean/Read/ReadVariableOp"
  op: "ReadVariableOp"
  input: "module/MobilenetV2/expanded_conv_2/expand/BatchNorm/moving_mean"
  attr {
    key: "_class"
    value {
      list {
        s: "loc:@module/MobilenetV2/expanded_conv_2/expand/BatchNorm/moving_mean"
      }
    }
  }
  attr {
    key: "dtype"
    value {
      type: DT_FLOAT
    }
  }
}
node {
  name: "module/MobilenetV2/expanded_conv_2/expand/BatchNorm/moving_variance/Initializer/ones"
  op: "Const"
  attr {
    key: "_class"
    value {
      list {
        s: "loc:@module/MobilenetV2/expanded_conv_2/expand/BatchNorm/moving_variance"
      }
    }
  }
  attr {
    key: "dtype"
    value {
      type: DT_FLOAT
    }
  }
  attr {
    key: "value"
    value {
      tensor {
        dtype: DT_FLOAT
        tensor_shape {
          dim {
            size: 48
          }
        }
        float_val: 1.0
      }
    }
  }
}
node {
  name: "module/MobilenetV2/expanded_conv_2/expand/BatchNorm/moving_variance"
  op: "VarHandleOp"
  attr {
    key: "_class"
    value {
      list {
        s: "loc:@module/MobilenetV2/expanded_conv_2/expand/BatchNorm/moving_variance"
      }
    }
  }
  attr {
    key: "container"
    value {
      s: ""
    }
  }
  attr {
    key: "dtype"
    value {
      type: DT_FLOAT
    }
  }
  attr {
    key: "shape"
    value {
      shape {
        dim {
          size: 48
        }
      }
    }
  }
  attr {
    key: "shared_name"
    value {
      s: "module/MobilenetV2/expanded_conv_2/expand/BatchNorm/moving_variance"
    }
  }
}
node {
  name: "module/MobilenetV2/expanded_conv_2/expand/BatchNorm/moving_variance/IsInitialized/VarIsInitializedOp"
  op: "VarIsInitializedOp"
  input: "module/MobilenetV2/expanded_conv_2/expand/BatchNorm/moving_variance"
}
node {
  name: "module/MobilenetV2/expanded_conv_2/expand/BatchNorm/moving_variance/Assign"
  op: "AssignVariableOp"
  input: "module/MobilenetV2/expanded_conv_2/expand/BatchNorm/moving_variance"
  input: "module/MobilenetV2/expanded_conv_2/expand/BatchNorm/moving_variance/Initializer/ones"
  attr {
    key: "_class"
    value {
      list {
        s: "loc:@module/MobilenetV2/expanded_conv_2/expand/BatchNorm/moving_variance"
      }
    }
  }
  attr {
    key: "dtype"
    value {
      type: DT_FLOAT
    }
  }
}
node {
  name: "module/MobilenetV2/expanded_conv_2/expand/BatchNorm/moving_variance/Read/ReadVariableOp"
  op: "ReadVariableOp"
  input: "module/MobilenetV2/expanded_conv_2/expand/BatchNorm/moving_variance"
  attr {
    key: "_class"
    value {
      list {
        s: "loc:@module/MobilenetV2/expanded_conv_2/expand/BatchNorm/moving_variance"
      }
    }
  }
  attr {
    key: "dtype"
    value {
      type: DT_FLOAT
    }
  }
}
node {
  name: "module/MobilenetV2/expanded_conv_2/expand/BatchNorm/ReadVariableOp"
  op: "ReadVariableOp"
  input: "module/MobilenetV2/expanded_conv_2/expand/BatchNorm/gamma"
  attr {
    key: "dtype"
    value {
      type: DT_FLOAT
    }
  }
}
node {
  name: "module/MobilenetV2/expanded_conv_2/expand/BatchNorm/ReadVariableOp_1"
  op: "ReadVariableOp"
  input: "module/MobilenetV2/expanded_conv_2/expand/BatchNorm/beta"
  attr {
    key: "dtype"
    value {
      type: DT_FLOAT
    }
  }
}
node {
  name: "module/MobilenetV2/expanded_conv_2/expand/BatchNorm/FusedBatchNorm/ReadVariableOp"
  op: "ReadVariableOp"
  input: "module/MobilenetV2/expanded_conv_2/expand/BatchNorm/moving_mean"
  attr {
    key: "dtype"
    value {
      type: DT_FLOAT
    }
  }
}
node {
  name: "module/MobilenetV2/expanded_conv_2/expand/BatchNorm/FusedBatchNorm/ReadVariableOp_1"
  op: "ReadVariableOp"
  input: "module/MobilenetV2/expanded_conv_2/expand/BatchNorm/moving_variance"
  attr {
    key: "dtype"
    value {
      type: DT_FLOAT
    }
  }
}
node {
  name: "module/MobilenetV2/expanded_conv_2/expand/BatchNorm/FusedBatchNorm"
  op: "FusedBatchNorm"
  input: "module/MobilenetV2/expanded_conv_2/expand/Conv2D"
  input: "module/MobilenetV2/expanded_conv_2/expand/BatchNorm/ReadVariableOp"
  input: "module/MobilenetV2/expanded_conv_2/expand/BatchNorm/ReadVariableOp_1"
  input: "module/MobilenetV2/expanded_conv_2/expand/BatchNorm/FusedBatchNorm/ReadVariableOp"
  input: "module/MobilenetV2/expanded_conv_2/expand/BatchNorm/FusedBatchNorm/ReadVariableOp_1"
  attr {
    key: "T"
    value {
      type: DT_FLOAT
    }
  }
  attr {
    key: "data_format"
    value {
      s: "NHWC"
    }
  }
  attr {
    key: "epsilon"
    value {
      f: 0.0010000000474974513
    }
  }
  attr {
    key: "is_training"
    value {
      b: false
    }
  }
}
node {
  name: "module/MobilenetV2/expanded_conv_2/expand/BatchNorm/Const"
  op: "Const"
  attr {
    key: "dtype"
    value {
      type: DT_FLOAT
    }
  }
  attr {
    key: "value"
    value {
      tensor {
        dtype: DT_FLOAT
        tensor_shape {
        }
        float_val: 0.996999979019165
      }
    }
  }
}
node {
  name: "module/MobilenetV2/expanded_conv_2/expand/Relu6"
  op: "Relu6"
  input: "module/MobilenetV2/expanded_conv_2/expand/BatchNorm/FusedBatchNorm"
  attr {
    key: "T"
    value {
      type: DT_FLOAT
    }
  }
}
node {
  name: "module/MobilenetV2/expanded_conv_2/expansion_output"
  op: "Identity"
  input: "module/MobilenetV2/expanded_conv_2/expand/Relu6"
  attr {
    key: "T"
    value {
      type: DT_FLOAT
    }
  }
}
node {
  name: "module/MobilenetV2/expanded_conv_2/depthwise/depthwise_weights/Initializer/truncated_normal/shape"
  op: "Const"
  attr {
    key: "_class"
    value {
      list {
        s: "loc:@module/MobilenetV2/expanded_conv_2/depthwise/depthwise_weights"
      }
    }
  }
  attr {
    key: "dtype"
    value {
      type: DT_INT32
    }
  }
  attr {
    key: "value"
    value {
      tensor {
        dtype: DT_INT32
        tensor_shape {
          dim {
            size: 4
          }
        }
        tensor_content: "\003\000\000\000\003\000\000\0000\000\000\000\001\000\000\000"
      }
    }
  }
}
node {
  name: "module/MobilenetV2/expanded_conv_2/depthwise/depthwise_weights/Initializer/truncated_normal/mean"
  op: "Const"
  attr {
    key: "_class"
    value {
      list {
        s: "loc:@module/MobilenetV2/expanded_conv_2/depthwise/depthwise_weights"
      }
    }
  }
  attr {
    key: "dtype"
    value {
      type: DT_FLOAT
    }
  }
  attr {
    key: "value"
    value {
      tensor {
        dtype: DT_FLOAT
        tensor_shape {
        }
        float_val: 0.0
      }
    }
  }
}
node {
  name: "module/MobilenetV2/expanded_conv_2/depthwise/depthwise_weights/Initializer/truncated_normal/stddev"
  op: "Const"
  attr {
    key: "_class"
    value {
      list {
        s: "loc:@module/MobilenetV2/expanded_conv_2/depthwise/depthwise_weights"
      }
    }
  }
  attr {
    key: "dtype"
    value {
      type: DT_FLOAT
    }
  }
  attr {
    key: "value"
    value {
      tensor {
        dtype: DT_FLOAT
        tensor_shape {
        }
        float_val: 0.09000000357627869
      }
    }
  }
}
node {
  name: "module/MobilenetV2/expanded_conv_2/depthwise/depthwise_weights/Initializer/truncated_normal/TruncatedNormal"
  op: "TruncatedNormal"
  input: "module/MobilenetV2/expanded_conv_2/depthwise/depthwise_weights/Initializer/truncated_normal/shape"
  attr {
    key: "T"
    value {
      type: DT_INT32
    }
  }
  attr {
    key: "_class"
    value {
      list {
        s: "loc:@module/MobilenetV2/expanded_conv_2/depthwise/depthwise_weights"
      }
    }
  }
  attr {
    key: "dtype"
    value {
      type: DT_FLOAT
    }
  }
  attr {
    key: "seed"
    value {
      i: 0
    }
  }
  attr {
    key: "seed2"
    value {
      i: 0
    }
  }
}
node {
  name: "module/MobilenetV2/expanded_conv_2/depthwise/depthwise_weights/Initializer/truncated_normal/mul"
  op: "Mul"
  input: "module/MobilenetV2/expanded_conv_2/depthwise/depthwise_weights/Initializer/truncated_normal/TruncatedNormal"
  input: "module/MobilenetV2/expanded_conv_2/depthwise/depthwise_weights/Initializer/truncated_normal/stddev"
  attr {
    key: "T"
    value {
      type: DT_FLOAT
    }
  }
  attr {
    key: "_class"
    value {
      list {
        s: "loc:@module/MobilenetV2/expanded_conv_2/depthwise/depthwise_weights"
      }
    }
  }
}
node {
  name: "module/MobilenetV2/expanded_conv_2/depthwise/depthwise_weights/Initializer/truncated_normal"
  op: "Add"
  input: "module/MobilenetV2/expanded_conv_2/depthwise/depthwise_weights/Initializer/truncated_normal/mul"
  input: "module/MobilenetV2/expanded_conv_2/depthwise/depthwise_weights/Initializer/truncated_normal/mean"
  attr {
    key: "T"
    value {
      type: DT_FLOAT
    }
  }
  attr {
    key: "_class"
    value {
      list {
        s: "loc:@module/MobilenetV2/expanded_conv_2/depthwise/depthwise_weights"
      }
    }
  }
}
node {
  name: "module/MobilenetV2/expanded_conv_2/depthwise/depthwise_weights"
  op: "VarHandleOp"
  attr {
    key: "_class"
    value {
      list {
        s: "loc:@module/MobilenetV2/expanded_conv_2/depthwise/depthwise_weights"
      }
    }
  }
  attr {
    key: "container"
    value {
      s: ""
    }
  }
  attr {
    key: "dtype"
    value {
      type: DT_FLOAT
    }
  }
  attr {
    key: "shape"
    value {
      shape {
        dim {
          size: 3
        }
        dim {
          size: 3
        }
        dim {
          size: 48
        }
        dim {
          size: 1
        }
      }
    }
  }
  attr {
    key: "shared_name"
    value {
      s: "module/MobilenetV2/expanded_conv_2/depthwise/depthwise_weights"
    }
  }
}
node {
  name: "module/MobilenetV2/expanded_conv_2/depthwise/depthwise_weights/IsInitialized/VarIsInitializedOp"
  op: "VarIsInitializedOp"
  input: "module/MobilenetV2/expanded_conv_2/depthwise/depthwise_weights"
}
node {
  name: "module/MobilenetV2/expanded_conv_2/depthwise/depthwise_weights/Assign"
  op: "AssignVariableOp"
  input: "module/MobilenetV2/expanded_conv_2/depthwise/depthwise_weights"
  input: "module/MobilenetV2/expanded_conv_2/depthwise/depthwise_weights/Initializer/truncated_normal"
  attr {
    key: "_class"
    value {
      list {
        s: "loc:@module/MobilenetV2/expanded_conv_2/depthwise/depthwise_weights"
      }
    }
  }
  attr {
    key: "dtype"
    value {
      type: DT_FLOAT
    }
  }
}
node {
  name: "module/MobilenetV2/expanded_conv_2/depthwise/depthwise_weights/Read/ReadVariableOp"
  op: "ReadVariableOp"
  input: "module/MobilenetV2/expanded_conv_2/depthwise/depthwise_weights"
  attr {
    key: "_class"
    value {
      list {
        s: "loc:@module/MobilenetV2/expanded_conv_2/depthwise/depthwise_weights"
      }
    }
  }
  attr {
    key: "dtype"
    value {
      type: DT_FLOAT
    }
  }
}
node {
  name: "module/MobilenetV2/expanded_conv_2/depthwise/depthwise/ReadVariableOp"
  op: "ReadVariableOp"
  input: "module/MobilenetV2/expanded_conv_2/depthwise/depthwise_weights"
  attr {
    key: "dtype"
    value {
      type: DT_FLOAT
    }
  }
}
node {
  name: "module/MobilenetV2/expanded_conv_2/depthwise/depthwise/Shape"
  op: "Const"
  attr {
    key: "dtype"
    value {
      type: DT_INT32
    }
  }
  attr {
    key: "value"
    value {
      tensor {
        dtype: DT_INT32
        tensor_shape {
          dim {
            size: 4
          }
        }
        tensor_content: "\003\000\000\000\003\000\000\0000\000\000\000\001\000\000\000"
      }
    }
  }
}
node {
  name: "module/MobilenetV2/expanded_conv_2/depthwise/depthwise/dilation_rate"
  op: "Const"
  attr {
    key: "dtype"
    value {
      type: DT_INT32
    }
  }
  attr {
    key: "value"
    value {
      tensor {
        dtype: DT_INT32
        tensor_shape {
          dim {
            size: 2
          }
        }
        tensor_content: "\001\000\000\000\001\000\000\000"
      }
    }
  }
}
node {
  name: "module/MobilenetV2/expanded_conv_2/depthwise/depthwise"
  op: "DepthwiseConv2dNative"
  input: "module/MobilenetV2/expanded_conv_2/expansion_output"
  input: "module/MobilenetV2/expanded_conv_2/depthwise/depthwise/ReadVariableOp"
  attr {
    key: "T"
    value {
      type: DT_FLOAT
    }
  }
  attr {
    key: "data_format"
    value {
      s: "NHWC"
    }
  }
  attr {
    key: "dilations"
    value {
      list {
        i: 1
        i: 1
        i: 1
        i: 1
      }
    }
  }
  attr {
    key: "padding"
    value {
      s: "SAME"
    }
  }
  attr {
    key: "strides"
    value {
      list {
        i: 1
        i: 1
        i: 1
        i: 1
      }
    }
  }
}
node {
  name: "module/MobilenetV2/expanded_conv_2/depthwise/BatchNorm/gamma/Initializer/ones"
  op: "Const"
  attr {
    key: "_class"
    value {
      list {
        s: "loc:@module/MobilenetV2/expanded_conv_2/depthwise/BatchNorm/gamma"
      }
    }
  }
  attr {
    key: "dtype"
    value {
      type: DT_FLOAT
    }
  }
  attr {
    key: "value"
    value {
      tensor {
        dtype: DT_FLOAT
        tensor_shape {
          dim {
            size: 48
          }
        }
        float_val: 1.0
      }
    }
  }
}
node {
  name: "module/MobilenetV2/expanded_conv_2/depthwise/BatchNorm/gamma"
  op: "VarHandleOp"
  attr {
    key: "_class"
    value {
      list {
        s: "loc:@module/MobilenetV2/expanded_conv_2/depthwise/BatchNorm/gamma"
      }
    }
  }
  attr {
    key: "container"
    value {
      s: ""
    }
  }
  attr {
    key: "dtype"
    value {
      type: DT_FLOAT
    }
  }
  attr {
    key: "shape"
    value {
      shape {
        dim {
          size: 48
        }
      }
    }
  }
  attr {
    key: "shared_name"
    value {
      s: "module/MobilenetV2/expanded_conv_2/depthwise/BatchNorm/gamma"
    }
  }
}
node {
  name: "module/MobilenetV2/expanded_conv_2/depthwise/BatchNorm/gamma/IsInitialized/VarIsInitializedOp"
  op: "VarIsInitializedOp"
  input: "module/MobilenetV2/expanded_conv_2/depthwise/BatchNorm/gamma"
}
node {
  name: "module/MobilenetV2/expanded_conv_2/depthwise/BatchNorm/gamma/Assign"
  op: "AssignVariableOp"
  input: "module/MobilenetV2/expanded_conv_2/depthwise/BatchNorm/gamma"
  input: "module/MobilenetV2/expanded_conv_2/depthwise/BatchNorm/gamma/Initializer/ones"
  attr {
    key: "_class"
    value {
      list {
        s: "loc:@module/MobilenetV2/expanded_conv_2/depthwise/BatchNorm/gamma"
      }
    }
  }
  attr {
    key: "dtype"
    value {
      type: DT_FLOAT
    }
  }
}
node {
  name: "module/MobilenetV2/expanded_conv_2/depthwise/BatchNorm/gamma/Read/ReadVariableOp"
  op: "ReadVariableOp"
  input: "module/MobilenetV2/expanded_conv_2/depthwise/BatchNorm/gamma"
  attr {
    key: "_class"
    value {
      list {
        s: "loc:@module/MobilenetV2/expanded_conv_2/depthwise/BatchNorm/gamma"
      }
    }
  }
  attr {
    key: "dtype"
    value {
      type: DT_FLOAT
    }
  }
}
node {
  name: "module/MobilenetV2/expanded_conv_2/depthwise/BatchNorm/beta/Initializer/zeros"
  op: "Const"
  attr {
    key: "_class"
    value {
      list {
        s: "loc:@module/MobilenetV2/expanded_conv_2/depthwise/BatchNorm/beta"
      }
    }
  }
  attr {
    key: "dtype"
    value {
      type: DT_FLOAT
    }
  }
  attr {
    key: "value"
    value {
      tensor {
        dtype: DT_FLOAT
        tensor_shape {
          dim {
            size: 48
          }
        }
        float_val: 0.0
      }
    }
  }
}
node {
  name: "module/MobilenetV2/expanded_conv_2/depthwise/BatchNorm/beta"
  op: "VarHandleOp"
  attr {
    key: "_class"
    value {
      list {
        s: "loc:@module/MobilenetV2/expanded_conv_2/depthwise/BatchNorm/beta"
      }
    }
  }
  attr {
    key: "container"
    value {
      s: ""
    }
  }
  attr {
    key: "dtype"
    value {
      type: DT_FLOAT
    }
  }
  attr {
    key: "shape"
    value {
      shape {
        dim {
          size: 48
        }
      }
    }
  }
  attr {
    key: "shared_name"
    value {
      s: "module/MobilenetV2/expanded_conv_2/depthwise/BatchNorm/beta"
    }
  }
}
node {
  name: "module/MobilenetV2/expanded_conv_2/depthwise/BatchNorm/beta/IsInitialized/VarIsInitializedOp"
  op: "VarIsInitializedOp"
  input: "module/MobilenetV2/expanded_conv_2/depthwise/BatchNorm/beta"
}
node {
  name: "module/MobilenetV2/expanded_conv_2/depthwise/BatchNorm/beta/Assign"
  op: "AssignVariableOp"
  input: "module/MobilenetV2/expanded_conv_2/depthwise/BatchNorm/beta"
  input: "module/MobilenetV2/expanded_conv_2/depthwise/BatchNorm/beta/Initializer/zeros"
  attr {
    key: "_class"
    value {
      list {
        s: "loc:@module/MobilenetV2/expanded_conv_2/depthwise/BatchNorm/beta"
      }
    }
  }
  attr {
    key: "dtype"
    value {
      type: DT_FLOAT
    }
  }
}
node {
  name: "module/MobilenetV2/expanded_conv_2/depthwise/BatchNorm/beta/Read/ReadVariableOp"
  op: "ReadVariableOp"
  input: "module/MobilenetV2/expanded_conv_2/depthwise/BatchNorm/beta"
  attr {
    key: "_class"
    value {
      list {
        s: "loc:@module/MobilenetV2/expanded_conv_2/depthwise/BatchNorm/beta"
      }
    }
  }
  attr {
    key: "dtype"
    value {
      type: DT_FLOAT
    }
  }
}
node {
  name: "module/MobilenetV2/expanded_conv_2/depthwise/BatchNorm/moving_mean/Initializer/zeros"
  op: "Const"
  attr {
    key: "_class"
    value {
      list {
        s: "loc:@module/MobilenetV2/expanded_conv_2/depthwise/BatchNorm/moving_mean"
      }
    }
  }
  attr {
    key: "dtype"
    value {
      type: DT_FLOAT
    }
  }
  attr {
    key: "value"
    value {
      tensor {
        dtype: DT_FLOAT
        tensor_shape {
          dim {
            size: 48
          }
        }
        float_val: 0.0
      }
    }
  }
}
node {
  name: "module/MobilenetV2/expanded_conv_2/depthwise/BatchNorm/moving_mean"
  op: "VarHandleOp"
  attr {
    key: "_class"
    value {
      list {
        s: "loc:@module/MobilenetV2/expanded_conv_2/depthwise/BatchNorm/moving_mean"
      }
    }
  }
  attr {
    key: "container"
    value {
      s: ""
    }
  }
  attr {
    key: "dtype"
    value {
      type: DT_FLOAT
    }
  }
  attr {
    key: "shape"
    value {
      shape {
        dim {
          size: 48
        }
      }
    }
  }
  attr {
    key: "shared_name"
    value {
      s: "module/MobilenetV2/expanded_conv_2/depthwise/BatchNorm/moving_mean"
    }
  }
}
node {
  name: "module/MobilenetV2/expanded_conv_2/depthwise/BatchNorm/moving_mean/IsInitialized/VarIsInitializedOp"
  op: "VarIsInitializedOp"
  input: "module/MobilenetV2/expanded_conv_2/depthwise/BatchNorm/moving_mean"
}
node {
  name: "module/MobilenetV2/expanded_conv_2/depthwise/BatchNorm/moving_mean/Assign"
  op: "AssignVariableOp"
  input: "module/MobilenetV2/expanded_conv_2/depthwise/BatchNorm/moving_mean"
  input: "module/MobilenetV2/expanded_conv_2/depthwise/BatchNorm/moving_mean/Initializer/zeros"
  attr {
    key: "_class"
    value {
      list {
        s: "loc:@module/MobilenetV2/expanded_conv_2/depthwise/BatchNorm/moving_mean"
      }
    }
  }
  attr {
    key: "dtype"
    value {
      type: DT_FLOAT
    }
  }
}
node {
…
  input: "save_2/RestoreV2:186"
  attr {
    key: "T"
    value {
      type: DT_FLOAT
    }
  }
}
node {
  name: "save_2/AssignVariableOp_184"
  op: "AssignVariableOp"
  input: "module/MobilenetV2/expanded_conv_4/project/weights"
  input: "save_2/Identity_184"
  attr {
    key: "dtype"
    value {
      type: DT_FLOAT
    }
  }
}
node {
  name: "save_2/Identity_185"
  op: "Identity"
  input: "save_2/RestoreV2:187"
  attr {
    key: "T"
    value {
      type: DT_FLOAT
    }
  }
}
node {
  name: "save_2/AssignVariableOp_185"
  op: "AssignVariableOp"
  input: "module/MobilenetV2/expanded_conv_5/depthwise/BatchNorm/beta"
  input: "save_2/Identity_185"
  attr {
    key: "dtype"
    value {
      type: DT_FLOAT
    }
  }
}
node {
  name: "save_2/Identity_186"
  op: "Identity"
  input: "save_2/RestoreV2:188"
  attr {
    key: "T"
    value {
      type: DT_FLOAT
    }
  }
}
node {
  name: "save_2/AssignVariableOp_186"
  op: "AssignVariableOp"
  input: "module/MobilenetV2/expanded_conv_5/depthwise/BatchNorm/gamma"
  input: "save_2/Identity_186"
  attr {
    key: "dtype"
    value {
      type: DT_FLOAT
    }
  }
}
node {
  name: "save_2/Identity_187"
  op: "Identity"
  input: "save_2/RestoreV2:189"
  attr {
    key: "T"
    value {
      type: DT_FLOAT
    }
  }
}
node {
  name: "save_2/AssignVariableOp_187"
  op: "AssignVariableOp"
  input: "module/MobilenetV2/expanded_conv_5/depthwise/BatchNorm/moving_mean"
  input: "save_2/Identity_187"
  attr {
    key: "dtype"
    value {
      type: DT_FLOAT
    }
  }
}
node {
  name: "save_2/Identity_188"
  op: "Identity"
  input: "save_2/RestoreV2:190"
  attr {
    key: "T"
    value {
      type: DT_FLOAT
    }
  }
}
node {
  name: "save_2/AssignVariableOp_188"
  op: "AssignVariableOp"
  input: "module/MobilenetV2/expanded_conv_5/depthwise/BatchNorm/moving_variance"
  input: "save_2/Identity_188"
  attr {
    key: "dtype"
    value {
      type: DT_FLOAT
    }
  }
}
node {
  name: "save_2/Identity_189"
  op: "Identity"
  input: "save_2/RestoreV2:191"
  attr {
    key: "T"
    value {
      type: DT_FLOAT
    }
  }
}
node {
  name: "save_2/AssignVariableOp_189"
  op: "AssignVariableOp"
  input: "module/MobilenetV2/expanded_conv_5/depthwise/depthwise_weights"
  input: "save_2/Identity_189"
  attr {
    key: "dtype"
    value {
      type: DT_FLOAT
    }
  }
}
node {
  name: "save_2/Identity_190"
  op: "Identity"
  input: "save_2/RestoreV2:192"
  attr {
    key: "T"
    value {
      type: DT_FLOAT
    }
  }
}
node {
  name: "save_2/AssignVariableOp_190"
  op: "AssignVariableOp"
  input: "module/MobilenetV2/expanded_conv_5/expand/BatchNorm/beta"
  input: "save_2/Identity_190"
  attr {
    key: "dtype"
    value {
      type: DT_FLOAT
    }
  }
}
node {
  name: "save_2/Identity_191"
  op: "Identity"
  input: "save_2/RestoreV2:193"
  attr {
    key: "T"
    value {
      type: DT_FLOAT
    }
  }
}
node {
  name: "save_2/AssignVariableOp_191"
  op: "AssignVariableOp"
  input: "module/MobilenetV2/expanded_conv_5/expand/BatchNorm/gamma"
  input: "save_2/Identity_191"
  attr {
    key: "dtype"
    value {
      type: DT_FLOAT
    }
  }
}
node {
  name: "save_2/Identity_192"
  op: "Identity"
  input: "save_2/RestoreV2:194"
  attr {
    key: "T"
    value {
      type: DT_FLOAT
    }
  }
}
node {
  name: "save_2/AssignVariableOp_192"
  op: "AssignVariableOp"
  input: "module/MobilenetV2/expanded_conv_5/expand/BatchNorm/moving_mean"
  input: "save_2/Identity_192"
  attr {
    key: "dtype"
    value {
      type: DT_FLOAT
    }
  }
}
node {
  name: "save_2/Identity_193"
  op: "Identity"
  input: "save_2/RestoreV2:195"
  attr {
    key: "T"
    value {
      type: DT_FLOAT
    }
  }
}
node {
  name: "save_2/AssignVariableOp_193"
  op: "AssignVariableOp"
  input: "module/MobilenetV2/expanded_conv_5/expand/BatchNorm/moving_variance"
  input: "save_2/Identity_193"
  attr {
    key: "dtype"
    value {
      type: DT_FLOAT
    }
  }
}
node {
  name: "save_2/Identity_194"
  op: "Identity"
  input: "save_2/RestoreV2:196"
  attr {
    key: "T"
    value {
      type: DT_FLOAT
    }
  }
}
node {
  name: "save_2/AssignVariableOp_194"
  op: "AssignVariableOp"
  input: "module/MobilenetV2/expanded_conv_5/expand/weights"
  input: "save_2/Identity_194"
  attr {
    key: "dtype"
    value {
      type: DT_FLOAT
    }
  }
}
node {
  name: "save_2/Identity_195"
  op: "Identity"
  input: "save_2/RestoreV2:197"
  attr {
    key: "T"
    value {
      type: DT_FLOAT
    }
  }
}
node {
  name: "save_2/AssignVariableOp_195"
  op: "AssignVariableOp"
  input: "module/MobilenetV2/expanded_conv_5/project/BatchNorm/beta"
  input: "save_2/Identity_195"
  attr {
    key: "dtype"
    value {
      type: DT_FLOAT
    }
  }
}
node {
  name: "save_2/Identity_196"
  op: "Identity"
  input: "save_2/RestoreV2:198"
  attr {
    key: "T"
    value {
      type: DT_FLOAT
    }
  }
}
node {
  name: "save_2/AssignVariableOp_196"
  op: "AssignVariableOp"
  input: "module/MobilenetV2/expanded_conv_5/project/BatchNorm/gamma"
  input: "save_2/Identity_196"
  attr {
    key: "dtype"
    value {
      type: DT_FLOAT
    }
  }
}
node {
  name: "save_2/Identity_197"
  op: "Identity"
  input: "save_2/RestoreV2:199"
  attr {
    key: "T"
    value {
      type: DT_FLOAT
    }
  }
}
node {
  name: "save_2/AssignVariableOp_197"
  op: "AssignVariableOp"
  input: "module/MobilenetV2/expanded_conv_5/project/BatchNorm/moving_mean"
  input: "save_2/Identity_197"
  attr {
    key: "dtype"
    value {
      type: DT_FLOAT
    }
  }
}
node {
  name: "save_2/Identity_198"
  op: "Identity"
  input: "save_2/RestoreV2:200"
  attr {
    key: "T"
    value {
      type: DT_FLOAT
    }
  }
}
node {
  name: "save_2/AssignVariableOp_198"
  op: "AssignVariableOp"
  input: "module/MobilenetV2/expanded_conv_5/project/BatchNorm/moving_variance"
  input: "save_2/Identity_198"
  attr {
    key: "dtype"
    value {
      type: DT_FLOAT
    }
  }
}
node {
  name: "save_2/Identity_199"
  op: "Identity"
  input: "save_2/RestoreV2:201"
  attr {
    key: "T"
    value {
      type: DT_FLOAT
    }
  }
}
node {
  name: "save_2/AssignVariableOp_199"
  op: "AssignVariableOp"
  input: "module/MobilenetV2/expanded_conv_5/project/weights"
  input: "save_2/Identity_199"
  attr {
    key: "dtype"
    value {
      type: DT_FLOAT
    }
  }
}
node {
  name: "save_2/Identity_200"
  op: "Identity"
  input: "save_2/RestoreV2:202"
  attr {
    key: "T"
    value {
      type: DT_FLOAT
    }
  }
}
node {
  name: "save_2/AssignVariableOp_200"
  op: "AssignVariableOp"
  input: "module/MobilenetV2/expanded_conv_6/depthwise/BatchNorm/beta"
  input: "save_2/Identity_200"
  attr {
    key: "dtype"
    value {
      type: DT_FLOAT
    }
  }
}
node {
  name: "save_2/Identity_201"
  op: "Identity"
  input: "save_2/RestoreV2:203"
  attr {
    key: "T"
    value {
      type: DT_FLOAT
    }
  }
}
node {
  name: "save_2/AssignVariableOp_201"
  op: "AssignVariableOp"
  input: "module/MobilenetV2/expanded_conv_6/depthwise/BatchNorm/gamma"
  input: "save_2/Identity_201"
  attr {
    key: "dtype"
    value {
      type: DT_FLOAT
    }
  }
}
node {
  name: "save_2/Identity_202"
  op: "Identity"
  input: "save_2/RestoreV2:204"
  attr {
    key: "T"
    value {
      type: DT_FLOAT
    }
  }
}
node {
  name: "save_2/AssignVariableOp_202"
  op: "AssignVariableOp"
  input: "module/MobilenetV2/expanded_conv_6/depthwise/BatchNorm/moving_mean"
  input: "save_2/Identity_202"
  attr {
    key: "dtype"
    value {
      type: DT_FLOAT
    }
  }
}
node {
  name: "save_2/Identity_203"
  op: "Identity"
  input: "save_2/RestoreV2:205"
  attr {
    key: "T"
    value {
      type: DT_FLOAT
    }
  }
}
node {
  name: "save_2/AssignVariableOp_203"
  op: "AssignVariableOp"
  input: "module/MobilenetV2/expanded_conv_6/depthwise/BatchNorm/moving_variance"
  input: "save_2/Identity_203"
  attr {
    key: "dtype"
    value {
      type: DT_FLOAT
    }
  }
}
node {
  name: "save_2/Identity_204"
  op: "Identity"
  input: "save_2/RestoreV2:206"
  attr {
    key: "T"
    value {
      type: DT_FLOAT
    }
  }
}
node {
  name: "save_2/AssignVariableOp_204"
  op: "AssignVariableOp"
  input: "module/MobilenetV2/expanded_conv_6/depthwise/depthwise_weights"
  input: "save_2/Identity_204"
  attr {
    key: "dtype"
    value {
      type: DT_FLOAT
    }
  }
}
node {
  name: "save_2/Identity_205"
  op: "Identity"
  input: "save_2/RestoreV2:207"
  attr {
    key: "T"
    value {
      type: DT_FLOAT
    }
  }
}
node {
  name: "save_2/AssignVariableOp_205"
  op: "AssignVariableOp"
  input: "module/MobilenetV2/expanded_conv_6/expand/BatchNorm/beta"
  input: "save_2/Identity_205"
  attr {
    key: "dtype"
    value {
      type: DT_FLOAT
    }
  }
}
node {
  name: "save_2/Identity_206"
  op: "Identity"
  input: "save_2/RestoreV2:208"
  attr {
    key: "T"
    value {
      type: DT_FLOAT
    }
  }
}
node {
  name: "save_2/AssignVariableOp_206"
  op: "AssignVariableOp"
  input: "module/MobilenetV2/expanded_conv_6/expand/BatchNorm/gamma"
  input: "save_2/Identity_206"
  attr {
    key: "dtype"
    value {
      type: DT_FLOAT
    }
  }
}
node {
  name: "save_2/Identity_207"
  op: "Identity"
  input: "save_2/RestoreV2:209"
  attr {
    key: "T"
    value {
      type: DT_FLOAT
    }
  }
}
node {
  name: "save_2/AssignVariableOp_207"
  op: "AssignVariableOp"
  input: "module/MobilenetV2/expanded_conv_6/expand/BatchNorm/moving_mean"
  input: "save_2/Identity_207"
  attr {
    key: "dtype"
    value {
      type: DT_FLOAT
    }
  }
}
node {
  name: "save_2/Identity_208"
  op: "Identity"
  input: "save_2/RestoreV2:210"
  attr {
    key: "T"
    value {
      type: DT_FLOAT
    }
  }
}
node {
  name: "save_2/AssignVariableOp_208"
  op: "AssignVariableOp"
  input: "module/MobilenetV2/expanded_conv_6/expand/BatchNorm/moving_variance"
  input: "save_2/Identity_208"
  attr {
    key: "dtype"
    value {
      type: DT_FLOAT
    }
  }
}
node {
  name: "save_2/Identity_209"
  op: "Identity"
  input: "save_2/RestoreV2:211"
  attr {
    key: "T"
    value {
      type: DT_FLOAT
    }
  }
}
node {
  name: "save_2/AssignVariableOp_209"
  op: "AssignVariableOp"
  input: "module/MobilenetV2/expanded_conv_6/expand/weights"
  input: "save_2/Identity_209"
  attr {
    key: "dtype"
    value {
      type: DT_FLOAT
    }
  }
}
node {
  name: "save_2/Identity_210"
  op: "Identity"
  input: "save_2/RestoreV2:212"
  attr {
    key: "T"
    value {
      type: DT_FLOAT
    }
  }
}
node {
  name: "save_2/AssignVariableOp_210"
  op: "AssignVariableOp"
  input: "module/MobilenetV2/expanded_conv_6/project/BatchNorm/beta"
  input: "save_2/Identity_210"
  attr {
    key: "dtype"
    value {
      type: DT_FLOAT
    }
  }
}
node {
  name: "save_2/Identity_211"
  op: "Identity"
  input: "save_2/RestoreV2:213"
  attr {
    key: "T"
    value {
      type: DT_FLOAT
    }
  }
}
node {
  name: "save_2/AssignVariableOp_211"
  op: "AssignVariableOp"
  input: "module/MobilenetV2/expanded_conv_6/project/BatchNorm/gamma"
  input: "save_2/Identity_211"
  attr {
    key: "dtype"
    value {
      type: DT_FLOAT
    }
  }
}
node {
  name: "save_2/Identity_212"
  op: "Identity"
  input: "save_2/RestoreV2:214"
  attr {
    key: "T"
    value {
      type: DT_FLOAT
    }
  }
}
node {
  name: "save_2/AssignVariableOp_212"
  op: "AssignVariableOp"
  input: "module/MobilenetV2/expanded_conv_6/project/BatchNorm/moving_mean"
  input: "save_2/Identity_212"
  attr {
    key: "dtype"
    value {
      type: DT_FLOAT
    }
  }
}
node {
  name: "save_2/Identity_213"
  op: "Identity"
  input: "save_2/RestoreV2:215"
  attr {
    key: "T"
    value {
      type: DT_FLOAT
    }
  }
}
node {
  name: "save_2/AssignVariableOp_213"
  op: "AssignVariableOp"
  input: "module/MobilenetV2/expanded_conv_6/project/BatchNorm/moving_variance"
  input: "save_2/Identity_213"
  attr {
    key: "dtype"
    value {
      type: DT_FLOAT
    }
  }
}
node {
  name: "save_2/Identity_214"
  op: "Identity"
  input: "save_2/RestoreV2:216"
  attr {
    key: "T"
    value {
      type: DT_FLOAT
    }
  }
}
node {
  name: "save_2/AssignVariableOp_214"
  op: "AssignVariableOp"
  input: "module/MobilenetV2/expanded_conv_6/project/weights"
  input: "save_2/Identity_214"
  attr {
    key: "dtype"
    value {
      type: DT_FLOAT
    }
  }
}
node {
  name: "save_2/Identity_215"
  op: "Identity"
  input: "save_2/RestoreV2:217"
  attr {
    key: "T"
    value {
      type: DT_FLOAT
    }
  }
}
node {
  name: "save_2/AssignVariableOp_215"
  op: "AssignVariableOp"
  input: "module/MobilenetV2/expanded_conv_7/depthwise/BatchNorm/beta"
  input: "save_2/Identity_215"
  attr {
    key: "dtype"
    value {
      type: DT_FLOAT
    }
  }
}
node {
  name: "save_2/Identity_216"
  op: "Identity"
  input: "save_2/RestoreV2:218"
  attr {
    key: "T"
    value {
      type: DT_FLOAT
    }
  }
}
node {
  name: "save_2/AssignVariableOp_216"
  op: "AssignVariableOp"
  input: "module/MobilenetV2/expanded_conv_7/depthwise/BatchNorm/gamma"
  input: "save_2/Identity_216"
  attr {
    key: "dtype"
    value {
      type: DT_FLOAT
    }
  }
}
node {
  name: "save_2/Identity_217"
  op: "Identity"
  input: "save_2/RestoreV2:219"
  attr {
    key: "T"
    value {
      type: DT_FLOAT
    }
  }
}
node {
  name: "save_2/AssignVariableOp_217"
  op: "AssignVariableOp"
  input: "module/MobilenetV2/expanded_conv_7/depthwise/BatchNorm/moving_mean"
  input: "save_2/Identity_217"
  attr {
    key: "dtype"
    value {
      type: DT_FLOAT
    }
  }
}
node {
  name: "save_2/Identity_218"
  op: "Identity"
  input: "save_2/RestoreV2:220"
  attr {
    key: "T"
    value {
      type: DT_FLOAT
    }
  }
}
node {
  name: "save_2/AssignVariableOp_218"
  op: "AssignVariableOp"
  input: "module/MobilenetV2/expanded_conv_7/depthwise/BatchNorm/moving_variance"
  input: "save_2/Identity_218"
  attr {
    key: "dtype"
    value {
      type: DT_FLOAT
    }
  }
}
node {
  name: "save_2/Identity_219"
  op: "Identity"
  input: "save_2/RestoreV2:221"
  attr {
    key: "T"
    value {
      type: DT_FLOAT
    }
  }
}
node {
  name: "save_2/AssignVariableOp_219"
  op: "AssignVariableOp"
  input: "module/MobilenetV2/expanded_conv_7/depthwise/depthwise_weights"
  input: "save_2/Identity_219"
  attr {
    key: "dtype"
    value {
      type: DT_FLOAT
    }
  }
}
node {
  name: "save_2/Identity_220"
  op: "Identity"
  input: "save_2/RestoreV2:222"
  attr {
    key: "T"
    value {
      type: DT_FLOAT
    }
  }
}
node {
  name: "save_2/AssignVariableOp_220"
  op: "AssignVariableOp"
  input: "module/MobilenetV2/expanded_conv_7/expand/BatchNorm/beta"
  input: "save_2/Identity_220"
  attr {
    key: "dtype"
    value {
      type: DT_FLOAT
    }
  }
}
node {
  name: "save_2/Identity_221"
  op: "Identity"
  input: "save_2/RestoreV2:223"
  attr {
    key: "T"
    value {
      type: DT_FLOAT
    }
  }
}
node {
  name: "save_2/AssignVariableOp_221"
  op: "AssignVariableOp"
  input: "module/MobilenetV2/expanded_conv_7/expand/BatchNorm/gamma"
  input: "save_2/Identity_221"
  attr {
    key: "dtype"
    value {
      type: DT_FLOAT
    }
  }
}
node {
  name: "save_2/Identity_222"
  op: "Identity"
  input: "save_2/RestoreV2:224"
  attr {
    key: "T"
    value {
      type: DT_FLOAT
    }
  }
}
node {
  name: "save_2/AssignVariableOp_222"
  op: "AssignVariableOp"
  input: "module/MobilenetV2/expanded_conv_7/expand/BatchNorm/moving_mean"
  input: "save_2/Identity_222"
  attr {
    key: "dtype"
    value {
      type: DT_FLOAT
    }
  }
}
node {
  name: "save_2/Identity_223"
  op: "Identity"
  input: "save_2/RestoreV2:225"
  attr {
    key: "T"
    value {
      type: DT_FLOAT
    }
  }
}
node {
  name: "save_2/AssignVariableOp_223"
  op: "AssignVariableOp"
  input: "module/MobilenetV2/expanded_conv_7/expand/BatchNorm/moving_variance"
  input: "save_2/Identity_223"
  attr {
    key: "dtype"
    value {
      type: DT_FLOAT
    }
  }
}
node {
  name: "save_2/Identity_224"
  op: "Identity"
  input: "save_2/RestoreV2:226"
  attr {
    key: "T"
    value {
      type: DT_FLOAT
    }
  }
}
node {
  name: "save_2/AssignVariableOp_224"
  op: "AssignVariableOp"
  input: "module/MobilenetV2/expanded_conv_7/expand/weights"
  input: "save_2/Identity_224"
  attr {
    key: "dtype"
    value {
      type: DT_FLOAT
    }
  }
}
node {
  name: "save_2/Identity_225"
  op: "Identity"
  input: "save_2/RestoreV2:227"
  attr {
    key: "T"
    value {
      type: DT_FLOAT
    }
  }
}
node {
  name: "save_2/AssignVariableOp_225"
  op: "AssignVariableOp"
  input: "module/MobilenetV2/expanded_conv_7/project/BatchNorm/beta"
  input: "save_2/Identity_225"
  attr {
    key: "dtype"
    value {
      type: DT_FLOAT
    }
  }
}
node {
  name: "save_2/Identity_226"
  op: "Identity"
  input: "save_2/RestoreV2:228"
  attr {
    key: "T"
    value {
      type: DT_FLOAT
    }
  }
}
node {
  name: "save_2/AssignVariableOp_226"
  op: "AssignVariableOp"
  input: "module/MobilenetV2/expanded_conv_7/project/BatchNorm/gamma"
  input: "save_2/Identity_226"
  attr {
    key: "dtype"
    value {
      type: DT_FLOAT
    }
  }
}
node {
  name: "save_2/Identity_227"
  op: "Identity"
  input: "save_2/RestoreV2:229"
  attr {
    key: "T"
    value {
      type: DT_FLOAT
    }
  }
}
node {
  name: "save_2/AssignVariableOp_227"
  op: "AssignVariableOp"
  input: "module/MobilenetV2/expanded_conv_7/project/BatchNorm/moving_mean"
  input: "save_2/Identity_227"
  attr {
    key: "dtype"
    value {
      type: DT_FLOAT
    }
  }
}
node {
  name: "save_2/Identity_228"
  op: "Identity"
  input: "save_2/RestoreV2:230"
  attr {
    key: "T"
    value {
      type: DT_FLOAT
    }
  }
}
node {
  name: "save_2/AssignVariableOp_228"
  op: "AssignVariableOp"
  input: "module/MobilenetV2/expanded_conv_7/project/BatchNorm/moving_variance"
  input: "save_2/Identity_228"
  attr {
    key: "dtype"
    value {
      type: DT_FLOAT
    }
  }
}
node {
  name: "save_2/Identity_229"
  op: "Identity"
  input: "save_2/RestoreV2:231"
  attr {
    key: "T"
    value {
      type: DT_FLOAT
    }
  }
}
node {
  name: "save_2/AssignVariableOp_229"
  op: "AssignVariableOp"
  input: "module/MobilenetV2/expanded_conv_7/project/weights"
  input: "save_2/Identity_229"
  attr {
    key: "dtype"
    value {
      type: DT_FLOAT
    }
  }
}
node {
  name: "save_2/Identity_230"
  op: "Identity"
  input: "save_2/RestoreV2:232"
  attr {
    key: "T"
    value {
      type: DT_FLOAT
    }
  }
}
node {
  name: "save_2/AssignVariableOp_230"
  op: "AssignVariableOp"
  input: "module/MobilenetV2/expanded_conv_8/depthwise/BatchNorm/beta"
  input: "save_2/Identity_230"
  attr {
    key: "dtype"
    value {
      type: DT_FLOAT
    }
  }
}
node {
  name: "save_2/Identity_231"
  op: "Identity"
  input: "save_2/RestoreV2:233"
  attr {
    key: "T"
    value {
      type: DT_FLOAT
    }
  }
}
node {
  name: "save_2/AssignVariableOp_231"
  op: "AssignVariableOp"
  input: "module/MobilenetV2/expanded_conv_8/depthwise/BatchNorm/gamma"
  input: "save_2/Identity_231"
  attr {
    key: "dtype"
    value {
      type: DT_FLOAT
    }
  }
}
node {
  name: "save_2/Identity_232"
  op: "Identity"
  input: "save_2/RestoreV2:234"
  attr {
    key: "T"
    value {
      type: DT_FLOAT
    }
  }
}
node {
  name: "save_2/AssignVariableOp_232"
  op: "AssignVariableOp"
  input: "module/MobilenetV2/expanded_conv_8/depthwise/BatchNorm/moving_mean"
  input: "save_2/Identity_232"
  attr {
    key: "dtype"
    value {
      type: DT_FLOAT
    }
  }
}
node {
  name: "save_2/Identity_233"
  op: "Identity"
  input: "save_2/RestoreV2:235"
  attr {
    key: "T"
    value {
      type: DT_FLOAT
    }
  }
}
node {
  name: "save_2/AssignVariableOp_233"
  op: "AssignVariableOp"
  input: "module/MobilenetV2/expanded_conv_8/depthwise/BatchNorm/moving_variance"
  input: "save_2/Identity_233"
  attr {
    key: "dtype"
    value {
      type: DT_FLOAT
    }
  }
}
node {
  name: "save_2/Identity_234"
  op: "Identity"
  input: "save_2/RestoreV2:236"
  attr {
    key: "T"
    value {
      type: DT_FLOAT
    }
  }
}
node {
  name: "save_2/AssignVariableOp_234"
  op: "AssignVariableOp"
  input: "module/MobilenetV2/expanded_conv_8/depthwise/depthwise_weights"
  input: "save_2/Identity_234"
  attr {
    key: "dtype"
    value {
      type: DT_FLOAT
    }
  }
}
node {
  name: "save_2/Identity_235"
  op: "Identity"
  input: "save_2/RestoreV2:237"
  attr {
    key: "T"
    value {
      type: DT_FLOAT
    }
  }
}
node {
  name: "save_2/AssignVariableOp_235"
  op: "AssignVariableOp"
  input: "module/MobilenetV2/expanded_conv_8/expand/BatchNorm/beta"
  input: "save_2/Identity_235"
  attr {
    key: "dtype"
    value {
      type: DT_FLOAT
    }
  }
}
node {
  name: "save_2/Identity_236"
  op: "Identity"
  input: "save_2/RestoreV2:238"
  attr {
    key: "T"
    value {
      type: DT_FLOAT
    }
  }
}
node {
  name: "save_2/AssignVariableOp_236"
  op: "AssignVariableOp"
  input: "module/MobilenetV2/expanded_conv_8/expand/BatchNorm/gamma"
  input: "save_2/Identity_236"
  attr {
    key: "dtype"
    value {
      type: DT_FLOAT
    }
  }
}
node {
  name: "save_2/Identity_237"
  op: "Identity"
  input: "save_2/RestoreV2:239"
  attr {
    key: "T"
    value {
      type: DT_FLOAT
    }
  }
}
node {
  name: "save_2/AssignVariableOp_237"
  op: "AssignVariableOp"
  input: "module/MobilenetV2/expanded_conv_8/expand/BatchNorm/moving_mean"
  input: "save_2/Identity_237"
  attr {
    key: "dtype"
    value {
      type: DT_FLOAT
    }
  }
}
node {
  name: "save_2/Identity_238"
  op: "Identity"
  input: "save_2/RestoreV2:240"
  attr {
    key: "T"
    value {
      type: DT_FLOAT
    }
  }
}
node {
  name: "save_2/AssignVariableOp_238"
  op: "AssignVariableOp"
  input: "module/MobilenetV2/expanded_conv_8/expand/BatchNorm/moving_variance"
  input: "save_2/Identity_238"
  attr {
    key: "dtype"
    value {
      type: DT_FLOAT
    }
  }
}
node {
  name: "save_2/Identity_239"
  op: "Identity"
  input: "save_2/RestoreV2:241"
  attr {
    key: "T"
    value {
      type: DT_FLOAT
    }
  }
}
node {
  name: "save_2/AssignVariableOp_239"
  op: "AssignVariableOp"
  input: "module/MobilenetV2/expanded_conv_8/expand/weights"
  input: "save_2/Identity_239"
  attr {
    key: "dtype"
    value {
      type: DT_FLOAT
    }
  }
}
node {
  name: "save_2/Identity_240"
  op: "Identity"
  input: "save_2/RestoreV2:242"
  attr {
    key: "T"
    value {
      type: DT_FLOAT
    }
  }
}
node {
  name: "save_2/AssignVariableOp_240"
  op: "AssignVariableOp"
  input: "module/MobilenetV2/expanded_conv_8/project/BatchNorm/beta"
  input: "save_2/Identity_240"
  attr {
    key: "dtype"
    value {
      type: DT_FLOAT
    }
  }
}
node {
  name: "save_2/Identity_241"
  op: "Identity"
  input: "save_2/RestoreV2:243"
  attr {
    key: "T"
    value {
      type: DT_FLOAT
    }
  }
}
node {
  name: "save_2/AssignVariableOp_241"
  op: "AssignVariableOp"
  input: "module/MobilenetV2/expanded_conv_8/project/BatchNorm/gamma"
  input: "save_2/Identity_241"
  attr {
    key: "dtype"
    value {
      type: DT_FLOAT
    }
  }
}
node {
  name: "save_2/Identity_242"
  op: "Identity"
  input: "save_2/RestoreV2:244"
  attr {
    key: "T"
    value {
      type: DT_FLOAT
    }
  }
}
node {
  name: "save_2/AssignVariableOp_242"
  op: "AssignVariableOp"
  input: "module/MobilenetV2/expanded_conv_8/project/BatchNorm/moving_mean"
  input: "save_2/Identity_242"
  attr {
    key: "dtype"
    value {
      type: DT_FLOAT
    }
  }
}
node {
  name: "save_2/Identity_243"
  op: "Identity"
  input: "save_2/RestoreV2:245"
  attr {
    key: "T"
    value {
      type: DT_FLOAT
    }
  }
}
node {
  name: "save_2/AssignVariableOp_243"
  op: "AssignVariableOp"
  input: "module/MobilenetV2/expanded_conv_8/project/BatchNorm/moving_variance"
  input: "save_2/Identity_243"
  attr {
    key: "dtype"
    value {
      type: DT_FLOAT
    }
  }
}
node {
  name: "save_2/Identity_244"
  op: "Identity"
  input: "save_2/RestoreV2:246"
  attr {
    key: "T"
    value {
      type: DT_FLOAT
    }
  }
}
node {
  name: "save_2/AssignVariableOp_244"
  op: "AssignVariableOp"
  input: "module/MobilenetV2/expanded_conv_8/project/weights"
  input: "save_2/Identity_244"
  attr {
    key: "dtype"
    value {
      type: DT_FLOAT
    }
  }
}
node {
  name: "save_2/Identity_245"
  op: "Identity"
  input: "save_2/RestoreV2:247"
  attr {
    key: "T"
    value {
      type: DT_FLOAT
    }
  }
}
node {
  name: "save_2/AssignVariableOp_245"
  op: "AssignVariableOp"
  input: "module/MobilenetV2/expanded_conv_9/depthwise/BatchNorm/beta"
  input: "save_2/Identity_245"
  attr {
    key: "dtype"
    value {
      type: DT_FLOAT
    }
  }
}
node {
  name: "save_2/Identity_246"
  op: "Identity"
  input: "save_2/RestoreV2:248"
  attr {
    key: "T"
    value {
      type: DT_FLOAT
    }
  }
}
node {
  name: "save_2/AssignVariableOp_246"
  op: "AssignVariableOp"
  input: "module/MobilenetV2/expanded_conv_9/depthwise/BatchNorm/gamma"
  input: "save_2/Identity_246"
  attr {
    key: "dtype"
    value {
      type: DT_FLOAT
    }
  }
}
node {
  name: "save_2/Identity_247"
  op: "Identity"
  input: "save_2/RestoreV2:249"
  attr {
    key: "T"
    value {
      type: DT_FLOAT
    }
  }
}
node {
  name: "save_2/AssignVariableOp_247"
  op: "AssignVariableOp"
  input: "module/MobilenetV2/expanded_conv_9/depthwise/BatchNorm/moving_mean"
  input: "save_2/Identity_247"
  attr {
    key: "dtype"
    value {
      type: DT_FLOAT
    }
  }
}
node {
  name: "save_2/Identity_248"
  op: "Identity"
  input: "save_2/RestoreV2:250"
  attr {
    key: "T"
    value {
      type: DT_FLOAT
    }
  }
}
node {
  name: "save_2/AssignVariableOp_248"
  op: "AssignVariableOp"
  input: "module/MobilenetV2/expanded_conv_9/depthwise/BatchNorm/moving_variance"
  input: "save_2/Identity_248"
  attr {
    key: "dtype"
    value {
      type: DT_FLOAT
    }
  }
}
node {
  name: "save_2/Identity_249"
  op: "Identity"
  input: "save_2/RestoreV2:251"
  attr {
    key: "T"
    value {
      type: DT_FLOAT
    }
  }
}
node {
  name: "save_2/AssignVariableOp_249"
  op: "AssignVariableOp"
  input: "module/MobilenetV2/expanded_conv_9/depthwise/depthwise_weights"
  input: "save_2/Identity_249"
  attr {
    key: "dtype"
    value {
      type: DT_FLOAT
    }
  }
}
node {
  name: "save_2/Identity_250"
  op: "Identity"
  input: "save_2/RestoreV2:252"
  attr {
    key: "T"
    value {
      type: DT_FLOAT
    }
  }
}
node {
  name: "save_2/AssignVariableOp_250"
  op: "AssignVariableOp"
  input: "module/MobilenetV2/expanded_conv_9/expand/BatchNorm/beta"
  input: "save_2/Identity_250"
  attr {
    key: "dtype"
    value {
      type: DT_FLOAT
    }
  }
}
node {
  name: "save_2/Identity_251"
  op: "Identity"
  input: "save_2/RestoreV2:253"
  attr {
    key: "T"
    value {
      type: DT_FLOAT
    }
  }
}
node {
  name: "save_2/AssignVariableOp_251"
  op: "AssignVariableOp"
  input: "module/MobilenetV2/expanded_conv_9/expand/BatchNorm/gamma"
  input: "save_2/Identity_251"
  attr {
    key: "dtype"
    value {
      type: DT_FLOAT
    }
  }
}
node {
  name: "save_2/Identity_252"
  op: "Identity"
  input: "save_2/RestoreV2:254"
  attr {
    key: "T"
    value {
      type: DT_FLOAT
    }
  }
}
node {
  name: "save_2/AssignVariableOp_252"
  op: "AssignVariableOp"
  input: "module/MobilenetV2/expanded_conv_9/expand/BatchNorm/moving_mean"
  input: "save_2/Identity_252"
  attr {
    key: "dtype"
    value {
      type: DT_FLOAT
    }
  }
}
node {
  name: "save_2/Identity_253"
  op: "Identity"
  input: "save_2/RestoreV2:255"
  attr {
    key: "T"
    value {
      type: DT_FLOAT
    }
  }
}
node {
  name: "save_2/AssignVariableOp_253"
  op: "AssignVariableOp"
  input: "module/MobilenetV2/expanded_conv_9/expand/BatchNorm/moving_variance"
  input: "save_2/Identity_253"
  attr {
    key: "dtype"
    value {
      type: DT_FLOAT
    }
  }
}
node {
  name: "save_2/Identity_254"
  op: "Identity"
  input: "save_2/RestoreV2:256"
  attr {
    key: "T"
    value {
      type: DT_FLOAT
    }
  }
}
node {
  name: "save_2/AssignVariableOp_254"
  op: "AssignVariableOp"
  input: "module/MobilenetV2/expanded_conv_9/expand/weights"
  input: "save_2/Identity_254"
  attr {
    key: "dtype"
    value {
      type: DT_FLOAT
    }
  }
}
node {
  name: "save_2/Identity_255"
  op: "Identity"
  input: "save_2/RestoreV2:257"
  attr {
    key: "T"
    value {
      type: DT_FLOAT
    }
  }
}
node {
  name: "save_2/AssignVariableOp_255"
  op: "AssignVariableOp"
  input: "module/MobilenetV2/expanded_conv_9/project/BatchNorm/beta"
  input: "save_2/Identity_255"
  attr {
    key: "dtype"
    value {
      type: DT_FLOAT
    }
  }
}
node {
  name: "save_2/Identity_256"
  op: "Identity"
  input: "save_2/RestoreV2:258"
  attr {
    key: "T"
    value {
      type: DT_FLOAT
    }
  }
}
node {
  name: "save_2/AssignVariableOp_256"
  op: "AssignVariableOp"
  input: "module/MobilenetV2/expanded_conv_9/project/BatchNorm/gamma"
  input: "save_2/Identity_256"
  attr {
    key: "dtype"
    value {
      type: DT_FLOAT
    }
  }
}
node {
  name: "save_2/Identity_257"
  op: "Identity"
  input: "save_2/RestoreV2:259"
  attr {
    key: "T"
    value {
      type: DT_FLOAT
    }
  }
}
node {
  name: "save_2/AssignVariableOp_257"
  op: "AssignVariableOp"
  input: "module/MobilenetV2/expanded_conv_9/project/BatchNorm/moving_mean"
  input: "save_2/Identity_257"
  attr {
    key: "dtype"
    value {
      type: DT_FLOAT
    }
  }
}
node {
  name: "save_2/Identity_258"
  op: "Identity"
  input: "save_2/RestoreV2:260"
  attr {
    key: "T"
    value {
      type: DT_FLOAT
    }
  }
}
node {
  name: "save_2/AssignVariableOp_258"
  op: "AssignVariableOp"
  input: "module/MobilenetV2/expanded_conv_9/project/BatchNorm/moving_variance"
  input: "save_2/Identity_258"
  attr {
    key: "dtype"
    value {
      type: DT_FLOAT
    }
  }
}
node {
  name: "save_2/Identity_259"
  op: "Identity"
  input: "save_2/RestoreV2:261"
  attr {
    key: "T"
    value {
      type: DT_FLOAT
    }
  }
}
node {
  name: "save_2/AssignVariableOp_259"
  op: "AssignVariableOp"
  input: "module/MobilenetV2/expanded_conv_9/project/weights"
  input: "save_2/Identity_259"
  attr {
    key: "dtype"
    value {
      type: DT_FLOAT
    }
  }
}
node {
  name: "save_2/Assign_2"
  op: "Assign"
  input: "w1"
  input: "save_2/RestoreV2:262"
  attr {
    key: "T"
    value {
      type: DT_FLOAT
    }
  }
  attr {
    key: "_class"
    value {
      list {
        s: "loc:@w1"
      }
    }
  }
  attr {
    key: "use_locking"
    value {
      b: true
    }
  }
  attr {
    key: "validate_shape"
    value {
      b: true
    }
  }
}
node {
  name: "save_2/Assign_3"
  op: "Assign"
  input: "w2"
  input: "save_2/RestoreV2:263"
  attr {
    key: "T"
    value {
      type: DT_FLOAT
    }
  }
  attr {
    key: "_class"
    value {
      list {
        s: "loc:@w2"
      }
    }
  }
  attr {
    key: "use_locking"
    value {
      b: true
    }
  }
  attr {
    key: "validate_shape"
    value {
      b: true
    }
  }
}
node {
  name: "save_2/restore_all"
  op: "NoOp"
  input: "^save_2/Assign"
  input: "^save_2/AssignVariableOp"
  input: "^save_2/AssignVariableOp_1"
  input: "^save_2/AssignVariableOp_10"
  input: "^save_2/AssignVariableOp_100"
  input: "^save_2/AssignVariableOp_101"
  input: "^save_2/AssignVariableOp_102"
  input: "^save_2/AssignVariableOp_103"
  input: "^save_2/AssignVariableOp_104"
  input: "^save_2/AssignVariableOp_105"
  input: "^save_2/AssignVariableOp_106"
  input: "^save_2/AssignVariableOp_107"
  input: "^save_2/AssignVariableOp_108"
  input: "^save_2/AssignVariableOp_109"
  input: "^save_2/AssignVariableOp_11"
  input: "^save_2/AssignVariableOp_110"
  input: "^save_2/AssignVariableOp_111"
  input: "^save_2/AssignVariableOp_112"
  input: "^save_2/AssignVariableOp_113"
  input: "^save_2/AssignVariableOp_114"
  input: "^save_2/AssignVariableOp_115"
  input: "^save_2/AssignVariableOp_116"
  input: "^save_2/AssignVariableOp_117"
  input: "^save_2/AssignVariableOp_118"
  input: "^save_2/AssignVariableOp_119"
  input: "^save_2/AssignVariableOp_12"
  input: "^save_2/AssignVariableOp_120"
  input: "^save_2/AssignVariableOp_121"
  input: "^save_2/AssignVariableOp_122"
  input: "^save_2/AssignVariableOp_123"
  input: "^save_2/AssignVariableOp_124"
  input: "^save_2/AssignVariableOp_125"
  input: "^save_2/AssignVariableOp_126"
  input: "^save_2/AssignVariableOp_127"
  input: "^save_2/AssignVariableOp_128"
  input: "^save_2/AssignVariableOp_129"
  input: "^save_2/AssignVariableOp_13"
  input: "^save_2/AssignVariableOp_130"
  input: "^save_2/AssignVariableOp_131"
  input: "^save_2/AssignVariableOp_132"
  input: "^save_2/AssignVariableOp_133"
  input: "^save_2/AssignVariableOp_134"
  input: "^save_2/AssignVariableOp_135"
  input: "^save_2/AssignVariableOp_136"
  input: "^save_2/AssignVariableOp_137"
  input: "^save_2/AssignVariableOp_138"
  input: "^save_2/AssignVariableOp_139"
  input: "^save_2/AssignVariableOp_14"
  input: "^save_2/AssignVariableOp_140"
  input: "^save_2/AssignVariableOp_141"
  input: "^save_2/AssignVariableOp_142"
  input: "^save_2/AssignVariableOp_143"
  input: "^save_2/AssignVariableOp_144"
  input: "^save_2/AssignVariableOp_145"
  input: "^save_2/AssignVariableOp_146"
  input: "^save_2/AssignVariableOp_147"
  input: "^save_2/AssignVariableOp_148"
  input: "^save_2/AssignVariableOp_149"
  input: "^save_2/AssignVariableOp_15"
  input: "^save_2/AssignVariableOp_150"
  input: "^save_2/AssignVariableOp_151"
  input: "^save_2/AssignVariableOp_152"
  input: "^save_2/AssignVariableOp_153"
  input: "^save_2/AssignVariableOp_154"
  input: "^save_2/AssignVariableOp_155"
  input: "^save_2/AssignVariableOp_156"
  input: "^save_2/AssignVariableOp_157"
  input: "^save_2/AssignVariableOp_158"
  input: "^save_2/AssignVariableOp_159"
  input: "^save_2/AssignVariableOp_16"
  input: "^save_2/AssignVariableOp_160"
  input: "^save_2/AssignVariableOp_161"
  input: "^save_2/AssignVariableOp_162"
  input: "^save_2/AssignVariableOp_163"
  input: "^save_2/AssignVariableOp_164"
  input: "^save_2/AssignVariableOp_165"
  input: "^save_2/AssignVariableOp_166"
  input: "^save_2/AssignVariableOp_167"
  input: "^save_2/AssignVariableOp_168"
  input: "^save_2/AssignVariableOp_169"
  input: "^save_2/AssignVariableOp_17"
  input: "^save_2/AssignVariableOp_170"
  input: "^save_2/AssignVariableOp_171"
  input: "^save_2/AssignVariableOp_172"
  input: "^save_2/AssignVariableOp_173"
  input: "^save_2/AssignVariableOp_174"
  input: "^save_2/AssignVariableOp_175"
  input: "^save_2/AssignVariableOp_176"
  input: "^save_2/AssignVariableOp_177"
  input: "^save_2/AssignVariableOp_178"
  input: "^save_2/AssignVariableOp_179"
  input: "^save_2/AssignVariableOp_18"
  input: "^save_2/AssignVariableOp_180"
  input: "^save_2/AssignVariableOp_181"
  input: "^save_2/AssignVariableOp_182"
  input: "^save_2/AssignVariableOp_183"
  input: "^save_2/AssignVariableOp_184"
  input: "^save_2/AssignVariableOp_185"
  input: "^save_2/AssignVariableOp_186"
  input: "^save_2/AssignVariableOp_187"
  input: "^save_2/AssignVariableOp_188"
  input: "^save_2/AssignVariableOp_189"
  input: "^save_2/AssignVariableOp_19"
  input: "^save_2/AssignVariableOp_190"
  input: "^save_2/AssignVariableOp_191"
  input: "^save_2/AssignVariableOp_192"
  input: "^save_2/AssignVariableOp_193"
  input: "^save_2/AssignVariableOp_194"
  input: "^save_2/AssignVariableOp_195"
  input: "^save_2/AssignVariableOp_196"
  input: "^save_2/AssignVariableOp_197"
  input: "^save_2/AssignVariableOp_198"
  input: "^save_2/AssignVariableOp_199"
  input: "^save_2/AssignVariableOp_2"
  input: "^save_2/AssignVariableOp_20"
  input: "^save_2/AssignVariableOp_200"
  input: "^save_2/AssignVariableOp_201"
  input: "^save_2/AssignVariableOp_202"
  input: "^save_2/AssignVariableOp_203"
  input: "^save_2/AssignVariableOp_204"
  input: "^save_2/AssignVariableOp_205"
  input: "^save_2/AssignVariableOp_206"
  input: "^save_2/AssignVariableOp_207"
  input: "^save_2/AssignVariableOp_208"
  input: "^save_2/AssignVariableOp_209"
  input: "^save_2/AssignVariableOp_21"
  input: "^save_2/AssignVariableOp_210"
  input: "^save_2/AssignVariableOp_211"
  input: "^save_2/AssignVariableOp_212"
  input: "^save_2/AssignVariableOp_213"
  input: "^save_2/AssignVariableOp_214"
  input: "^save_2/AssignVariableOp_215"
  input: "^save_2/AssignVariableOp_216"
  input: "^save_2/AssignVariableOp_217"
  input: "^save_2/AssignVariableOp_218"
  input: "^save_2/AssignVariableOp_219"
  input: "^save_2/AssignVariableOp_22"
  input: "^save_2/AssignVariableOp_220"
  input: "^save_2/AssignVariableOp_221"
  input: "^save_2/AssignVariableOp_222"
  input: "^save_2/AssignVariableOp_223"
  input: "^save_2/AssignVariableOp_224"
  input: "^save_2/AssignVariableOp_225"
  input: "^save_2/AssignVariableOp_226"
  input: "^save_2/AssignVariableOp_227"
  input: "^save_2/AssignVariableOp_228"
  input: "^save_2/AssignVariableOp_229"
  input: "^save_2/AssignVariableOp_23"
  input: "^save_2/AssignVariableOp_230"
  input: "^save_2/AssignVariableOp_231"
  input: "^save_2/AssignVariableOp_232"
  input: "^save_2/AssignVariableOp_233"
  input: "^save_2/AssignVariableOp_234"
  input: "^save_2/AssignVariableOp_235"
  input: "^save_2/AssignVariableOp_236"
  input: "^save_2/AssignVariableOp_237"
  input: "^save_2/AssignVariableOp_238"
  input: "^save_2/AssignVariableOp_239"
  input: "^save_2/AssignVariableOp_24"
  input: "^save_2/AssignVariableOp_240"
  input: "^save_2/AssignVariableOp_241"
  input: "^save_2/AssignVariableOp_242"
  input: "^save_2/AssignVariableOp_243"
  input: "^save_2/AssignVariableOp_244"
  input: "^save_2/AssignVariableOp_245"
  input: "^save_2/AssignVariableOp_246"
  input: "^save_2/AssignVariableOp_247"
  input: "^save_2/AssignVariableOp_248"
  input: "^save_2/AssignVariableOp_249"
  input: "^save_2/AssignVariableOp_25"
  input: "^save_2/AssignVariableOp_250"
  input: "^save_2/AssignVariableOp_251"
  input: "^save_2/AssignVariableOp_252"
  input: "^save_2/AssignVariableOp_253"
  input: "^save_2/AssignVariableOp_254"
  input: "^save_2/AssignVariableOp_255"
  input: "^save_2/AssignVariableOp_256"
  input: "^save_2/AssignVariableOp_257"
  input: "^save_2/AssignVariableOp_258"
  input: "^save_2/AssignVariableOp_259"
  input: "^save_2/AssignVariableOp_26"
  input: "^save_2/AssignVariableOp_27"
  input: "^save_2/AssignVariableOp_28"
  input: "^save_2/AssignVariableOp_29"
  input: "^save_2/AssignVariableOp_3"
  input: "^save_2/AssignVariableOp_30"
  input: "^save_2/AssignVariableOp_31"
  input: "^save_2/AssignVariableOp_32"
  input: "^save_2/AssignVariableOp_33"
  input: "^save_2/AssignVariableOp_34"
  input: "^save_2/AssignVariableOp_35"
  input: "^save_2/AssignVariableOp_36"
  input: "^save_2/AssignVariableOp_37"
  input: "^save_2/AssignVariableOp_38"
  input: "^save_2/AssignVariableOp_39"
  input: "^save_2/AssignVariableOp_4"
  input: "^save_2/AssignVariableOp_40"
  input: "^save_2/AssignVariableOp_41"
  input: "^save_2/AssignVariableOp_42"
  input: "^save_2/AssignVariableOp_43"
  input: "^save_2/AssignVariableOp_44"
  input: "^save_2/AssignVariableOp_45"
  input: "^save_2/AssignVariableOp_46"
  input: "^save_2/AssignVariableOp_47"
  input: "^save_2/AssignVariableOp_48"
  input: "^save_2/AssignVariableOp_49"
  input: "^save_2/AssignVariableOp_5"
  input: "^save_2/AssignVariableOp_50"
  input: "^save_2/AssignVariableOp_51"
  input: "^save_2/AssignVariableOp_52"
  input: "^save_2/AssignVariableOp_53"
  input: "^save_2/AssignVariableOp_54"
  input: "^save_2/AssignVariableOp_55"
  input: "^save_2/AssignVariableOp_56"
  input: "^save_2/AssignVariableOp_57"
  input: "^save_2/AssignVariableOp_58"
  input: "^save_2/AssignVariableOp_59"
  input: "^save_2/AssignVariableOp_6"
  input: "^save_2/AssignVariableOp_60"
  input: "^save_2/AssignVariableOp_61"
  input: "^save_2/AssignVariableOp_62"
  input: "^save_2/AssignVariableOp_63"
  input: "^save_2/AssignVariableOp_64"
  input: "^save_2/AssignVariableOp_65"
  input: "^save_2/AssignVariableOp_66"
  input: "^save_2/AssignVariableOp_67"
  input: "^save_2/AssignVariableOp_68"
  input: "^save_2/AssignVariableOp_69"
  input: "^save_2/AssignVariableOp_7"
  input: "^save_2/AssignVariableOp_70"
  input: "^save_2/AssignVariableOp_71"
  input: "^save_2/AssignVariableOp_72"
  input: "^save_2/AssignVariableOp_73"
  input: "^save_2/AssignVariableOp_74"
  input: "^save_2/AssignVariableOp_75"
  input: "^save_2/AssignVariableOp_76"
  input: "^save_2/AssignVariableOp_77"
  input: "^save_2/AssignVariableOp_78"
  input: "^save_2/AssignVariableOp_79"
  input: "^save_2/AssignVariableOp_8"
  input: "^save_2/AssignVariableOp_80"
  input: "^save_2/AssignVariableOp_81"
  input: "^save_2/AssignVariableOp_82"
  input: "^save_2/AssignVariableOp_83"
  input: "^save_2/AssignVariableOp_84"
  input: "^save_2/AssignVariableOp_85"
  input: "^save_2/AssignVariableOp_86"
  input: "^save_2/AssignVariableOp_87"
  input: "^save_2/AssignVariableOp_88"
  input: "^save_2/AssignVariableOp_89"
  input: "^save_2/AssignVariableOp_9"
  input: "^save_2/AssignVariableOp_90"
  input: "^save_2/AssignVariableOp_91"
  input: "^save_2/AssignVariableOp_92"
  input: "^save_2/AssignVariableOp_93"
  input: "^save_2/AssignVariableOp_94"
  input: "^save_2/AssignVariableOp_95"
  input: "^save_2/AssignVariableOp_96"
  input: "^save_2/AssignVariableOp_97"
  input: "^save_2/AssignVariableOp_98"
  input: "^save_2/AssignVariableOp_99"
  input: "^save_2/Assign_1"
  input: "^save_2/Assign_2"
  input: "^save_2/Assign_3"
}
node {
  name: "init_1"
  op: "NoOp"
  input: "^AssignVariableOp"
  input: "^AssignVariableOp_1"
  input: "^AssignVariableOp_10"
  input: "^AssignVariableOp_100"
  input: "^AssignVariableOp_101"
  input: "^AssignVariableOp_102"
  input: "^AssignVariableOp_103"
  input: "^AssignVariableOp_104"
  input: "^AssignVariableOp_105"
  input: "^AssignVariableOp_106"
  input: "^AssignVariableOp_107"
  input: "^AssignVariableOp_108"
  input: "^AssignVariableOp_109"
  input: "^AssignVariableOp_11"
  input: "^AssignVariableOp_110"
  input: "^AssignVariableOp_111"
  input: "^AssignVariableOp_112"
  input: "^AssignVariableOp_113"
  input: "^AssignVariableOp_114"
  input: "^AssignVariableOp_115"
  input: "^AssignVariableOp_116"
  input: "^AssignVariableOp_117"
  input: "^AssignVariableOp_118"
  input: "^AssignVariableOp_119"
  input: "^AssignVariableOp_12"
  input: "^AssignVariableOp_120"
  input: "^AssignVariableOp_121"
  input: "^AssignVariableOp_122"
  input: "^AssignVariableOp_123"
  input: "^AssignVariableOp_124"
  input: "^AssignVariableOp_125"
  input: "^AssignVariableOp_126"
  input: "^AssignVariableOp_127"
  input: "^AssignVariableOp_128"
  input: "^AssignVariableOp_129"
  input: "^AssignVariableOp_13"
  input: "^AssignVariableOp_130"
  input: "^AssignVariableOp_131"
  input: "^AssignVariableOp_132"
  input: "^AssignVariableOp_133"
  input: "^AssignVariableOp_134"
  input: "^AssignVariableOp_135"
  input: "^AssignVariableOp_136"
  input: "^AssignVariableOp_137"
  input: "^AssignVariableOp_138"
  input: "^AssignVariableOp_139"
  input: "^AssignVariableOp_14"
  input: "^AssignVariableOp_140"
  input: "^AssignVariableOp_141"
  input: "^AssignVariableOp_142"
  input: "^AssignVariableOp_143"
  input: "^AssignVariableOp_144"
  input: "^AssignVariableOp_145"
  input: "^AssignVariableOp_146"
  input: "^AssignVariableOp_147"
  input: "^AssignVariableOp_148"
  input: "^AssignVariableOp_149"
  input: "^AssignVariableOp_15"
  input: "^AssignVariableOp_150"
  input: "^AssignVariableOp_151"
  input: "^AssignVariableOp_152"
  input: "^AssignVariableOp_153"
  input: "^AssignVariableOp_154"
  input: "^AssignVariableOp_155"
  input: "^AssignVariableOp_156"
  input: "^AssignVariableOp_157"
  input: "^AssignVariableOp_158"
  input: "^AssignVariableOp_159"
  input: "^AssignVariableOp_16"
  input: "^AssignVariableOp_160"
  input: "^AssignVariableOp_161"
  input: "^AssignVariableOp_162"
  input: "^AssignVariableOp_163"
  input: "^AssignVariableOp_164"
  input: "^AssignVariableOp_165"
  input: "^AssignVariableOp_166"
  input: "^AssignVariableOp_167"
  input: "^AssignVariableOp_168"
  input: "^AssignVariableOp_169"
  input: "^AssignVariableOp_17"
  input: "^AssignVariableOp_170"
  input: "^AssignVariableOp_171"
  input: "^AssignVariableOp_172"
  input: "^AssignVariableOp_173"
  input: "^AssignVariableOp_174"
  input: "^AssignVariableOp_175"
  input: "^AssignVariableOp_176"
  input: "^AssignVariableOp_177"
  input: "^AssignVariableOp_178"
  input: "^AssignVariableOp_179"
  input: "^AssignVariableOp_18"
  input: "^AssignVariableOp_180"
  input: "^AssignVariableOp_181"
  input: "^AssignVariableOp_182"
  input: "^AssignVariableOp_183"
  input: "^AssignVariableOp_184"
  input: "^AssignVariableOp_185"
  input: "^AssignVariableOp_186"
  input: "^AssignVariableOp_187"
  input: "^AssignVariableOp_188"
  input: "^AssignVariableOp_189"
  input: "^AssignVariableOp_19"
  input: "^AssignVariableOp_190"
  input: "^AssignVariableOp_191"
  input: "^AssignVariableOp_192"
  input: "^AssignVariableOp_193"
  input: "^AssignVariableOp_194"
  input: "^AssignVariableOp_195"
  input: "^AssignVariableOp_196"
  input: "^AssignVariableOp_197"
  input: "^AssignVariableOp_198"
  input: "^AssignVariableOp_199"
  input: "^AssignVariableOp_2"
  input: "^AssignVariableOp_20"
  input: "^AssignVariableOp_200"
  input: "^AssignVariableOp_201"
  input: "^AssignVariableOp_202"
  input: "^AssignVariableOp_203"
  input: "^AssignVariableOp_204"
  input: "^AssignVariableOp_205"
  input: "^AssignVariableOp_206"
  input: "^AssignVariableOp_207"
  input: "^AssignVariableOp_208"
  input: "^AssignVariableOp_209"
  input: "^AssignVariableOp_21"
  input: "^AssignVariableOp_210"
  input: "^AssignVariableOp_211"
  input: "^AssignVariableOp_212"
  input: "^AssignVariableOp_213"
  input: "^AssignVariableOp_214"
  input: "^AssignVariableOp_215"
  input: "^AssignVariableOp_216"
  input: "^AssignVariableOp_217"
  input: "^AssignVariableOp_218"
  input: "^AssignVariableOp_219"
  input: "^AssignVariableOp_22"
  input: "^AssignVariableOp_220"
  input: "^AssignVariableOp_221"
  input: "^AssignVariableOp_222"
  input: "^AssignVariableOp_223"
  input: "^AssignVariableOp_224"
  input: "^AssignVariableOp_225"
  input: "^AssignVariableOp_226"
  input: "^AssignVariableOp_227"
  input: "^AssignVariableOp_228"
  input: "^AssignVariableOp_229"
  input: "^AssignVariableOp_23"
  input: "^AssignVariableOp_230"
  input: "^AssignVariableOp_231"
  input: "^AssignVariableOp_232"
  input: "^AssignVariableOp_233"
  input: "^AssignVariableOp_234"
  input: "^AssignVariableOp_235"
  input: "^AssignVariableOp_236"
  input: "^AssignVariableOp_237"
  input: "^AssignVariableOp_238"
  input: "^AssignVariableOp_239"
  input: "^AssignVariableOp_24"
  input: "^AssignVariableOp_240"
  input: "^AssignVariableOp_241"
  input: "^AssignVariableOp_242"
  input: "^AssignVariableOp_243"
  input: "^AssignVariableOp_244"
  input: "^AssignVariableOp_245"
  input: "^AssignVariableOp_246"
  input: "^AssignVariableOp_247"
  input: "^AssignVariableOp_248"
  input: "^AssignVariableOp_249"
  input: "^AssignVariableOp_25"
  input: "^AssignVariableOp_250"
  input: "^AssignVariableOp_251"
  input: "^AssignVariableOp_252"
  input: "^AssignVariableOp_253"
  input: "^AssignVariableOp_254"
  input: "^AssignVariableOp_255"
  input: "^AssignVariableOp_256"
  input: "^AssignVariableOp_257"
  input: "^AssignVariableOp_258"
  input: "^AssignVariableOp_259"
  input: "^AssignVariableOp_26"
  input: "^AssignVariableOp_27"
  input: "^AssignVariableOp_28"
  input: "^AssignVariableOp_29"
  input: "^AssignVariableOp_3"
  input: "^AssignVariableOp_30"
  input: "^AssignVariableOp_31"
  input: "^AssignVariableOp_32"
  input: "^AssignVariableOp_33"
  input: "^AssignVariableOp_34"
  input: "^AssignVariableOp_35"
  input: "^AssignVariableOp_36"
  input: "^AssignVariableOp_37"
  input: "^AssignVariableOp_38"
  input: "^AssignVariableOp_39"
  input: "^AssignVariableOp_4"
  input: "^AssignVariableOp_40"
  input: "^AssignVariableOp_41"
  input: "^AssignVariableOp_42"
  input: "^AssignVariableOp_43"
  input: "^AssignVariableOp_44"
  input: "^AssignVariableOp_45"
  input: "^AssignVariableOp_46"
  input: "^AssignVariableOp_47"
  input: "^AssignVariableOp_48"
  input: "^AssignVariableOp_49"
  input: "^AssignVariableOp_5"
  input: "^AssignVariableOp_50"
  input: "^AssignVariableOp_51"
  input: "^AssignVariableOp_52"
  input: "^AssignVariableOp_53"
  input: "^AssignVariableOp_54"
  input: "^AssignVariableOp_55"
  input: "^AssignVariableOp_56"
  input: "^AssignVariableOp_57"
  input: "^AssignVariableOp_58"
  input: "^AssignVariableOp_59"
  input: "^AssignVariableOp_6"
  input: "^AssignVariableOp_60"
  input: "^AssignVariableOp_61"
  input: "^AssignVariableOp_62"
  input: "^AssignVariableOp_63"
  input: "^AssignVariableOp_64"
  input: "^AssignVariableOp_65"
  input: "^AssignVariableOp_66"
  input: "^AssignVariableOp_67"
  input: "^AssignVariableOp_68"
  input: "^AssignVariableOp_69"
  input: "^AssignVariableOp_7"
  input: "^AssignVariableOp_70"
  input: "^AssignVariableOp_71"
  input: "^AssignVariableOp_72"
  input: "^AssignVariableOp_73"
  input: "^AssignVariableOp_74"
  input: "^AssignVariableOp_75"
  input: "^AssignVariableOp_76"
  input: "^AssignVariableOp_77"
  input: "^AssignVariableOp_78"
  input: "^AssignVariableOp_79"
  input: "^AssignVariableOp_8"
  input: "^AssignVariableOp_80"
  input: "^AssignVariableOp_81"
  input: "^AssignVariableOp_82"
  input: "^AssignVariableOp_83"
  input: "^AssignVariableOp_84"
  input: "^AssignVariableOp_85"
  input: "^AssignVariableOp_86"
  input: "^AssignVariableOp_87"
  input: "^AssignVariableOp_88"
  input: "^AssignVariableOp_89"
  input: "^AssignVariableOp_9"
  input: "^AssignVariableOp_90"
  input: "^AssignVariableOp_91"
  input: "^AssignVariableOp_92"
  input: "^AssignVariableOp_93"
  input: "^AssignVariableOp_94"
  input: "^AssignVariableOp_95"
  input: "^AssignVariableOp_96"
  input: "^AssignVariableOp_97"
  input: "^AssignVariableOp_98"
  input: "^AssignVariableOp_99"
  input: "^dense/bias/Assign"
  input: "^dense/kernel/Assign"
  input: "^w1/Assign"
  input: "^w2/Assign"
}
versions {
  producer: 26
}
